src/AI/vision_model/lstm_model_additional_epoch_50.pt (torch, 242364 bytes, 10 tensors)

lstm.weight_ih_l0 f4 [256, 30]
00000000: e365 563c 643e dfbc d23c db3b 3df1 e93d
00000010: e5aa 6dbc e057 3dbe 31a7 41be 1ff1 35bd
00000020: 2c55 1c3c f8d3 8d3d b778 3abd b6a5 59bd
00000030: 8d1d bbbd dd6f e1bd 096a 78be 4445 9bbe
00000040: 2e9c 5abc da19 dbbd 79e1 9f3d 1e91 873e
00000050: 0582 c0bd 7741 f63d b564 bdbb 98ea 00be
00000060: 2943 acbd 3405 0d3d 4ed1 943d 1a13 39bd
00000070: 14cd 943d e98f 08bd fff9 64be c881 babd
00000080: d78c fcbd 2c72 0abe a94e 07be c084 babd
00000090: a79a d9bd 4a5e 62be 1499 063d 7bac 933d
000000a0: 4cc8 bebd 095f ae3d a9cc 053e ddfa eebd
000000b0: 2de5 56bd a016 26be b691 c4bd 85c2 743d
000000c0: 37a2 45be 131a ddbd 1423 c0be efc6 03bf
000000d0: c1b0 8ebc 2b38 14be 6843 14bd 341f 5abe
000000e0: 4e93 b0bd a997 82bd d8c5 46be 5a3a 69be
000000f0: 6d02 873e f366 0d3e b921 043e 7191 7e3e
00000100: 04d9 46be 1362 14be 2706 03be b108 34be
00000110: 01c4 d93d 52d8 49be 9535 eb3d e501 793d
00000120: 058c 053e adc0 40be f2ed bb3c fcb2 24be
00000130: 33a0 173d 2797 be3c bf4c 933e 3eaa e73d
00000140: bf29 0a3f f479 773e 74c8 d93e 682c 8c3e
00000150: 079c 003f eb8c 803e 59bf 883e e91f 423e
00000160: 9978 c33e bab1 bd3e 0782 c93c f098 573d
00000170: 68fd 613d 61d0 dcbd 41b4 613e 7558 943e
00000180: f9b6 2c3e 9cde 0e3e 8554 313d 23d1 003d
00000190: e6e4 7e3e 92f7 f93d 5791 5e3e 419f 233e
000001a0: c31b 843d 3a62 a8bd bc38 0e3e 1f9e c8bd
000001b0: b48a b63e 375b 26be 00a1 6e3e c4c2 7dbe
000001c0: d990 3b3e 4f3d ecbe d260 763e 0f8e 81be
000001d0: 7da3 513e c870 dcbe f0f1 773e e45d cbbe
000001e0: 3b5d 053d 38bd f43d e6cc 593e 4763 423e
000001f0: f832 a13d 9bae 073c 3e15 d83d bc39 26bc
00000200: 1954 b73e b1d2 213e f9ee 583d a9b7 813d
00000210: bd22 c83c 2078 54bc 1dea 903d a793 2dbd
00000220: 6d78 febd cd3b 99bd 9c85 6e3d 2e99 5e3e
00000230: 38a6 c03d 3d92 06be fedb eabc 8701 4f3d
00000240: 009e 1dbe 35f9 253d 0413 a23c 30c7 c2b8
00000250: 9534 383e 3061 453e 67f8 403d 23d5 273e
00000260: f212 a23d 62bc de3c d6e5 4fbd bb0c 243d
00000270: c3b5 b43d 1419 c63b 0484 f73d d105 483e
00000280: c8ca d33d 783d 5d3c 2316 023e 7a88 093e
00000290: 6f46 2c3d 3338 f83d 946b 2e3e 508a 073e
000002a0: b06a 413e 3c54 0a3d f64c 1f3d 4b4e 253e
000002b0: 9868 8f3c 1521 933d 1836 583d c2f5 a53d
000002c0: 3a7a 053e 1d96 1b3e c9cb e8bd fcef 523e
000002d0: a118 05bd 11a7 05be 3340 793d 9329 b5bd
000002e0: de8c 0b3e 7dcc 2e3d 663f 813e 3537 c43c
000002f0: 2083 89bd 00db adbd a9cb fd3d ab4a 263e
00000300: ab83 11be 23a1 20be f82e 5b3e 63b1 d33c
00000310: d0c8 113e f09f 4c3d 4eef d93c ee9c 45bd
00000320: a1d9 233c 004a ee3d 75c2 0f3e 9116 033d
00000330: 2740 263e 0802 2b3e 1776 883e bfda 1f3e
00000340: 96f0 713e 14f6 b13c 6ab6 9dbc d285 09bf
00000350: 1f22 54be e3ba 16bf f9a4 053d 14d9 81be
00000360: 78f0 0bbe 3c82 9ebe aed4 99bd 1f5c aa3e
00000370: a2c9 a23e 07c4 573e 1893 91be 1525 963e
00000380: 4ffc c83d d104 123d 19a0 d0bd 8ab3 393e
00000390: cf89 ee3d 32e3 a63e 2dec a6bd 98c6 ca3e
000003a0: 70ca cf3c e90a 273e e80b 66bc 6d7e 6e3e
000003b0: 55d9 11bc 842e 66be 1967 7b3a 1930 0abf
000003c0: eeaa 133b 12af 693d c6ed aabe 9ad1 82be
000003d0: 4aa5 ee3d 6513 4d3d ad7e 753d 5924 d6bd
000003e0: cb7c 53be f8c7 2fbe 64be 9fbd 0524 f3bb
000003f0: 4075 adbd 4cd2 0e3d b800 9a3e 968f c33e
0.013085815 -0.02725143 0.0066906 0.11422966 -0.014506076 -0.18490553 -0.18911435 -0.044419404
0.009541791 0.069251955 -0.04552528 -0.05313655 -0.09136496 -0.11007664 -0.24259199 -0.30326283
-0.0133429 -0.1069829 0.07806677 0.26477903 -0.09399799 0.12024205 -0.0057798275 -0.1258949
-0.08411247 0.03442879 0.07266484 -0.045184232 0.07265678 -0.03334037 -0.22360991 -0.09106785
-0.123315506 -0.13520116 -0.132136 -0.09107351 -0.10625201 -0.22106281 0.03286083 0.072106324
-0.09315547 0.0851422 0.13066353 -0.11668942 -0.052464653 -0.16219568 -0.09598105 0.05975582
-0.19300161 -0.10795989 -0.37526762 -0.51475424 -0.017418267 -0.14474551 -0.036197096 -0.21300966
-0.08621846 -0.06376583 -0.19411409 -0.22776166 0.26369038 0.13808803 0.12903489 0.24860169
-0.19418722 -0.14490537 -0.12795316 -0.1758144 0.10633088 -0.19711426 0.11484829 0.060792822
0.13041694 -0.188235 0.02294061 -0.16083902 0.037018012 0.023265434 0.2876949 0.11311768
0.5396995 0.24167615 0.42535746 0.2737763 0.5023808 0.25107512 0.26708487 0.18957485
0.38177946 0.37049657 0.024598135 0.052636087 0.055173308 -0.107819326 0.22041418 0.28973737
0.16866674 0.13952106 0.043293495 0.03144945 0.24892005 0.122054234 0.2173513 0.1597872
0.06450608 -0.0822186 0.1388883 -0.09795784 0.35652697 -0.16245733 0.23303604 -0.24781328
0.18316974 -0.46140525 0.24060372 -0.25303695 0.20472522 -0.43054795 0.24213386 -0.3972007
0.032559615 0.11950153 0.21269569 0.18983184 0.0787105 0.008281375 0.105509266 -0.010145601
0.3580635 0.15803029 0.052962277 0.063338585 0.024430627 -0.012968093 0.070759036 -0.04237714
-0.12425313 -0.07482109 0.05823289 0.21738121 0.09406704 -0.13141723 -0.028669354 0.050538566
-0.15392303 0.040520865 0.019784458 -9.2877424e-05 0.17988808 0.19275355 0.047111895 0.16389899
0.0791377 0.027189437 -0.050756298 0.040051203 0.08823731 0.00604547 0.12085727 0.19533469
0.10341412 0.013503425 0.12703757 0.13430968 0.04205936 0.12120094 0.17033225 0.13236356
0.18888354 0.03377174 0.038891755 0.16143148 0.017505929 0.07184044 0.052785963 0.08103515
0.13034907 0.15193982 -0.11366994 0.2059936 -0.03249419 -0.13052012 0.06085224 -0.0884582
0.13627955 0.042675484 0.25243682 0.023952106 -0.06714463 -0.084890366 0.12392361 0.16239421
-0.14210384 -0.15686469 0.21404636 0.02584142 0.1423676 0.049957216 0.026603367 -0.048245363
0.010000617 0.11635208 0.14039023 0.032003943 0.1623541 0.16699994 0.26652595 0.15610789
0.23626933 0.021723785 -0.01925202 -0.5371982 -0.20716141 -0.58878917 0.032628033 -0.2536093
-0.1366595 -0.30958736 -0.075112686 0.33273408 0.3179446 0.21070872 -0.28432536 0.29325166
0.09813749 0.035649125 -0.10186786 0.18134895 0.11647379 0.3259521 -0.08150516 0.3960464
0.025365084 0.16312756 -0.014040925 0.23290415 -0.008901914 -0.22478682 0.0009590253 -0.5397964
0.0022532302 0.057051726 -0.33384532 -0.25550538 0.1165262 0.050067324 0.05993526 -0.104561515
-0.20653073 -0.17166126 -0.07799986 -0.0074200653 -0.08469629 0.034868523 0.30078673 0.38195485

lstm.weight_hh_l0 f4 [256, 64]
00000000: b8ed c3be d849 c33e 7c1d b73d 6379 87bd
00000010: edd0 e23d ae72 06be 4e99 11be 4d93 ee3d
00000020: 1d27 c3be fd49 76be 131d adbc fb75 093e
00000030: ec19 1c3e 612a c83e 04d7 c63b 88f4 733e
00000040: 54c2 d5bd f7c9 b23b fa26 343e 81d4 f7bd
00000050: bca4 62bc 5519 27be e486 30bd b00c d6be
00000060: d169 2f3e a2b8 20be a40b a1bd daea 9fbe
00000070: 1855 633d a796 4d3e 8104 4dbe 48f9 903e
00000080: 7382 18bf 936e b03d 133a acbb d7ce 99be
00000090: a3cf debe c9a5 ff3b a278 953d 44ee bdbe
000000a0: adaf 94bc 223d 753d ea13 48be b0a3 80bd
000000b0: 9243 233f 6128 48be f28c c13c 5586 01bf
000000c0: 526e 643e 4905 bebc 87e6 1a3e 207b 5ebe
000000d0: a9c8 f3bd 5e79 bebd 2f4e 653e 93c9 80be
000000e0: e885 373e 7ae5 803d 3e50 21be dda4 783d
000000f0: 4689 0fbe f23d 913d 136f 00bd 263c 8abd
00000100: 3c6f 87be b717 9a3e 907a 5f3d 0fe8 9c3d
00000110: 6856 5f3e 0940 1fbe 8ba1 a3be 0809 71bf
00000120: 573e ae3c e122 093f 43a2 a43e eac1 64be
00000130: 8ff2 4d3e 4236 aabe 3fcc 393d 07e6 0cbf
00000140: cf53 c3bd 6121 353f b3e6 8f3d ff80 f23d
00000150: 74f4 49be 5ef6 30be dca2 b6be bc1e 06be
00000160: 8d5a 8cbe 8cf0 af3d fa4b 68be 0f22 8fbe
00000170: c553 a63c 5e89 2a3d 3852 6fbd 5d00 5cbe
00000180: c501 87be c637 14bf dcd3 173e ee5f 243e
00000190: 8a72 f13e cd73 d0be 3350 4dbf 8717 393d
000001a0: 91f1 413e 7e60 d53c 2485 b7bd 691e 183d
000001b0: 6aef 15be 83b3 2d3e 73ec debb 5ec0 803e
000001c0: e4d4 93bc 6541 cb3c d6d3 813e 8b9f dd3d
000001d0: f2d9 0bbe d441 b2bd 9973 b1bd 52bc 56be
000001e0: 5733 513d c659 9dbe 64ea 9e3e 0be7 10be
000001f0: 2f0d e9bd 4e5e 073f 73e0 7b3e d351 403b
00000200: 3bbe 193e 2c32 16bc c089 213d ba31 883d
00000210: ee51 133f 05c3 0d3f 4103 4cbe 1061 44bd
00000220: 144d 2cbe 445f b83e 1ccd a23e d83f f53c
00000230: 492c 003e 91f4 9cbd 2649 f03d 55ad d0bc
00000240: 4571 a1be 6837 3fbd 4c36 82be 4916 4ebd
00000250: cac6 9d3d 1a8e 13be 80aa 76bd 2c2c 42be
00000260: 5eaf 82be 2b89 f8bd 6fa1 1e3e c54b f9bd
00000270: 7541 3e3e 6c35 44be cb28 dbbd d7d5 9ebe
00000280: 6406 203e 2ec7 4a3d 8f8b d03e 33d9 023f
00000290: cf82 c73e a072 04be 2faf d8be 7398 8f3d
000002a0: 0bd0 febd 53ac 443d 2265 8cbd 4a96 03be
000002b0: be0c 8f3d 0700 2a3f 9e86 9a3e 8785 5f3e
000002c0: 6563 7ebe cb03 d6be 5091 223e c7f0 ca3e
000002d0: b757 bebd 6f5f d83d 5ef6 433e 66ce d73e
000002e0: 3179 65bd 413f ebbe fba1 d53e 2516 b1be
000002f0: 9ec6 44be 6016 b1bc 78c9 633e 24c5 15be
00000300: cc81 05bd c585 d03e 80b7 f8bd 151d d4bf
00000310: a48a bebd cbac a7bd c3d4 f6bd 001f b63c
00000320: cf85 d53e 43e1 da3c 68bc 9abd 5270 babc
00000330: d93d 683e 923d 873e e649 59be 51c0 56be
00000340: 1231 d0bd 85cc 80bd c92e f8bc 2872 713e
00000350: 623e 353c 2bf2 873e 9c93 1a3d f9ac 883e
00000360: df93 0b3f 3503 303e 5610 b33e f5f1 85be
00000370: 3c07 efbe d910 ae3e 2036 d9bd 56a8 56be
00000380: c3cd 3e3d fbdc d3be bcbb 713d 4e7a f33e
00000390: d3ea 00be 92e1 a3be 7744 853d b0d5 62be
000003a0: 57bc d53d bc1d 27bf 5ae6 ddbd 920d 593c
000003b0: cb1b 3ebe 86fe b7bd 3f6e d63d 5445 f93c
000003c0: 06f5 3dbe 9fe9 09be 1458 773d 86f0 a13d
000003d0: b240 9dbe 8770 01bf bd0b 1a3f 237f b63d
000003e0: eec7 333d 3fee 10bd cfa3 8c3d eec1 03bf
000003f0: 71b5 53bd eaab f43e e577 c23d fb49 f8bb
-0.38267303 0.38142276 0.089411706 -0.066149496 0.11075006 -0.13129684 -0.14218637 0.11649189
-0.3811578 -0.24051662 -0.021132028 0.13423912 0.15244263 0.39094833 0.0060681123 0.2382375
-0.10437456 0.005456205 0.17592993 -0.12101079 -0.013833221 -0.16318257 -0.04309739 -0.41806555
0.1713021 -0.15695432 -0.078635484 -0.31233865 0.055501074 0.20077 -0.2002125 0.28315187
-0.5957405 0.0861484 -0.0052559464 -0.3004062 -0.4351779 0.0078017456 0.072983995 -0.37095845
-0.018150175 0.059872754 -0.19538847 -0.06281221 0.6377498 -0.19546653 0.023626778 -0.505956
0.22307709 -0.02319588 0.15127002 -0.21726656 -0.11903507 -0.09300493 0.22393106 -0.2515379
0.17922175 0.06293769 -0.15753266 0.0607041 -0.1401721 0.07091893 -0.03135593 -0.06749754
-0.26452053 0.30096218 0.054560244 0.07661449 0.21810305 -0.15551771 -0.31959185 -0.94154406
0.02126996 0.53568846 0.32155046 -0.22339597 0.2011206 -0.3324452 0.0453608 -0.55038494
-0.095374696 0.7075406 0.07026424 0.1184101 -0.19722158 -0.17281482 -0.35671127 -0.13097662
-0.27412835 0.085908026 -0.22685233 -0.27955672 0.020303616 0.04163491 -0.05842802 -0.21484514
-0.26368538 -0.57897604 0.14826912 0.1605222 0.471577 -0.4071335 -0.802005 0.045188453
0.18939807 0.026046988 -0.089609414 0.037138376 -0.1464211 0.1696301 -0.0068030893 0.25146765
-0.01804585 0.024811456 0.2535693 0.10821446 -0.13657358 -0.08703962 -0.08664627 -0.20970276
0.051074352 -0.30732554 0.310382 -0.14150636 -0.11379468 0.5287827 0.2459734 0.0029345646
0.15013973 -0.009167235 0.03943801 0.066501096 0.5754689 0.553757 -0.19923116 -0.04794413
-0.16826278 0.36010182 0.3179711 0.02993767 0.12516893 -0.07663835 0.11732702 -0.025473276
-0.3153173 -0.0466837 -0.2543205 -0.05031422 0.07703932 -0.14409676 -0.060221195 -0.18962163
-0.2552442 -0.12135538 0.1549127 -0.12172655 0.18579657 -0.19161004 -0.1070114 -0.31022522
0.15627438 0.04950636 0.40731475 0.5111267 0.38966987 -0.12934351 -0.42321154 0.07011499
-0.12442025 0.048015904 -0.06855227 -0.128503 0.06984852 0.6640629 0.3018083 0.2182828
-0.24842604 -0.4179977 0.15875745 0.39636824 -0.09294074 0.105650775 0.1913695 0.42149657
-0.05602378 -0.45946696 0.41725144 -0.34587207 -0.19216391 -0.021617115 0.22244823 -0.14625984
-0.032594487 0.40727058 -0.12144375 -1.6571375 -0.09303787 -0.081872545 -0.120523 0.022231579
0.4170365 0.026718741 -0.07555467 -0.022758637 0.22679843 0.26414162 -0.21219596 -0.209718
-0.101656094 -0.06289009 -0.030295746 0.23578703 0.0110622365 0.26551947 0.037738428 0.26694468
0.5452251 0.17188723 0.349734 -0.2616116 -0.46685207 0.3399723 -0.10606027 -0.20962653
0.04658295 -0.41379532 0.059016928 0.4755425 -0.12589578 -0.32008034 0.06507199 -0.22151828
0.104363136 -0.65279746 -0.10834952 0.013247864 -0.1856529 -0.08984093 0.104702465 0.030428566
-0.185505 -0.13468026 0.060386732 0.07907204 -0.3071342 -0.5056233 0.6017416 0.08910968
0.04389184 -0.03538346 0.068671815 -0.5146779 -0.051686708 0.4778741 0.09495524 -0.0075771785

lstm.bias_ih_l0 f4 [256]
00000000: 6c19 3cbe b8d2 703e 138a 023e d55c 53bd
00000010: 42ca 59be a63b 083e 6002 093f 0e02 613e
00000020: 63a7 97be 9be4 51bd cf6a 423e 40b7 8e3e
00000030: 6026 25be acee 903e 4ee3 c93e 9559 13be
00000040: 8883 0ebd a70f 39be ef5a 69be ab65 da3d
00000050: c655 8ebe 4a7d f7bd 9df6 57be 405b 803e
00000060: 855b fb3c fa49 48be e932 0b3e 4d29 583e
00000070: f333 1e3e 62ca bebd 6c28 3bbc e5b7 7abe
00000080: 6c9b be3e 1844 a3be 5543 8c3d 58a8 a23d
00000090: 9e5b 84be 7a11 7d3e 4151 b13d 1090 b03d
000000a0: 5fe5 2b3d 4b2a 9f3e d224 5f3c 3f3f 693e
000000b0: 39a6 aebe c3b6 913e ade2 d2be 44c8 c3be
000000c0: 787d 403e e2e8 57be 1382 8b3e c2c3 d0bd
000000d0: a780 a0be 2440 6e3e 759e 0dbe cf89 f2bb
000000e0: dba5 b43d 3fb8 34be 4d23 c3be cbbd b03e
000000f0: 543b 13be ab29 25be a8d8 52be 62f2 c43d
00000100: e706 73be 33b9 d23c 6013 d4be f86b 363c
00000110: 42d0 28bd 732b 323e 1782 91be 804e fd3e
00000120: bc4d 2a3d 0f09 cbbc 463c 903d 6f52 053e
00000130: 6435 253f a760 ebbd cd2f b4bd b40b 583d
00000140: de70 733e b8e0 40bc 2321 5f3e 277a f1be
00000150: adda 67be e8c3 e93d 14b2 fc3b 08f0 88be
00000160: f7b7 36bd 9730 9ebd a3d9 80bd 13d7 bebe
00000170: 520c fd3d 0b12 943e 1b70 5f3e ed97 60be
00000180: 9cd7 303e 584f b9be 36c6 84bd e077 d03c
00000190: 0baf 5abe 0117 9a3e 87f1 02be 89f0 01bf
000001a0: 0b6d a13c 4a98 aabb 4891 733e 995c 553e
000001b0: 195d b9be a62e c23e 2f27 82bc 3724 4f3d
000001c0: fe59 d33e c657 bfbd 9ba3 bcbe 45ed a1bc
000001d0: 0274 44be 8629 453e dcdf d2be e376 e5ba
000001e0: 6dcf a5bc 00b2 673e 83b8 febd b372 163e
000001f0: ae1e 8b3e d972 fd3c bfcf e1bd bc8c 103e
00000200: 43d7 103e 091d 47be e69e f63e b0ce 0e3e
00000210: 9d30 54bd 38e8 c1be 1502 81be 4d1f 943d
00000220: 211b 4cbd 3351 b0bc 70d4 213f 819c debe
00000230: 94cf dbbe fadc c03e 75ec 823e 699b bbbd
00000240: 565a 093f 608d 6f3d 13f9 043c 5740 923e
00000250: 40b1 c73d abf9 8cbe f3c2 003d 9da7 13be
00000260: 1641 f43c 22ab 6fbd 6bea 47be 4e7d 96bd
00000270: abf7 9fbe 7878 003f 2510 9ebd 0c44 c93d
00000280: 2bd0 48bf 47d1 b03e 001f 3cbd 359d 3dbe
00000290: 52a0 243c 5b0c 853e 4059 9fbd 4ebf d7bd
000002a0: 30d0 07be 3174 143e f91c d7be 2270 023e
000002b0: 3203 1739 2943 fbbe 264d 82be 20d2 e73d
000002c0: 71be eebd 3303 70be 3b01 b9bc 9f3a 70be
000002d0: 2a52 963d 8793 b93c f152 44be 95ad 593e
000002e0: 8f0d 4fbd 6c14 1cbd 2dd1 5f3d 4418 c93e
000002f0: c083 62be 76e0 22be aa5b 9fba 0492 5a3e
00000300: f4bc 713d ab6f 4ebe e545 493d 1cf8 ecbd
00000310: 7c5f 85be d7fe 5b3c b4d0 19be a734 673e
00000320: 1dd7 043e 8b2b f73e 064f 52be 1d7f 793e
00000330: 7e65 96be 1a67 a2bd 13ca 8e3d 8607 ec3c
00000340: d6e3 903e ce78 893c 2e26 6c3d d97e bebc
00000350: 631f b73a 0a5a ee3e f153 bf3e 702a 02bd
00000360: 686d 733e 3f70 03be ffbd cfbd e68b dabd
00000370: 6c90 0b3e 343a 353f 67ca c4be b9dd b93e
00000380: 21fb 9b3d 9bd0 033e 9c2c 29bc 401d 043e
00000390: 807c 0e3d a871 f3bc 4221 7a3e 4a45 583e
000003a0: 9851 063f 78cf 3ebe e9d2 47be 5ea9 323e
000003b0: 6b5e 9dbe c71d a53e bd00 a2bd 88c2 b13c
000003c0: b4d1 323f f062 303b 2347 62bd 1a74 663e
000003d0: dc0f d43e 0910 d83c 43b3 8abe 646f 4fbd
000003e0: cbb7 803e d74f 4b3b 2816 73be e318 1a3e
000003f0: 9c2a f83e 4fbe bc3d 0588 3d3d b38c fb3e
-0.18369073 0.23517883 0.12747984 -0.051602203 -0.21268561 0.13304004 0.5351925 0.2197344
-0.29619893 -0.051243406 0.18986057 0.27874184 -0.1612792 0.28307092 0.39431232 -0.14389642
-0.034793407 -0.18072377 -0.22788595 0.10663923 -0.27799815 -0.12084444 -0.21090169 0.25069618
0.030683288 -0.1955947 0.1359364 0.21109505 0.15449505 -0.09315945 -0.011423212 -0.24484213
0.37227952 -0.3188789 0.0684878 0.07942265 -0.25851148 0.24713698 0.08658076 0.08621228
0.041966792 0.31086954 0.0136196185 0.22778033 -0.34111193 0.2845975 -0.41188565 -0.38238728
0.18797863 -0.21084931 0.27247676 -0.10193588 -0.31348154 0.23266655 -0.13829978 -0.007401682
0.08820697 -0.1764841 -0.3811287 0.345198 -0.143781 -0.16129176 -0.2059046 0.09616543
-0.23733102 0.025723075 -0.41421032 0.01113414 -0.041214235 0.17399387 -0.28419563 0.49473953
0.04157804 -0.024784593 0.07042746 0.13019727 0.6453459 -0.11493044 -0.0879818 0.052745536
0.23773524 -0.011772327 0.21789984 -0.47163507 -0.22642012 0.11414319 0.0077116583 -0.2674563
-0.044609036 -0.077241115 -0.06291511 -0.37273464 0.123558655 0.28920016 0.21820109 -0.21932955
0.17269748 -0.36193347 -0.06483118 0.025447786 -0.21355836 0.30095676 -0.12787448 -0.5075765
0.019705316 -0.0052061426 0.23785889 0.20836104 -0.3620384 0.37926215 -0.015887825 0.050571647
0.41279596 -0.09342913 -0.3684357 -0.01976646 -0.19184878 0.19254121 -0.41186416 -0.0017506744
-0.02024051 0.22626495 -0.124375366 0.14692192 0.27171844 0.030938553 -0.110259525 0.14116186
0.14144616 -0.1944467 0.48168105 0.13946033 -0.051804174 -0.3787248 -0.251969 0.07232533
-0.04983056 -0.021523094 0.6321478 -0.43478778 -0.42931807 0.37668592 0.25571027 -0.091605015
0.53653467 0.058484435 0.008116025 0.28564712 0.09750605 -0.27534232 0.031435918 -0.14419408
0.029816192 -0.058512814 -0.19523017 -0.07348119 -0.31243643 0.5018382 -0.07717923 0.09827432
-0.7844264 0.34534666 -0.045928 -0.18517001 0.010047989 0.2598599 -0.07780695 -0.10534535
-0.13263011 0.14497449 -0.42014292 0.12738088 0.00014401673 -0.49074677 -0.25449485 0.11319375
-0.116574176 -0.2343872 -0.022583595 -0.23459862 0.0733989 0.022653354 -0.19172265 0.21257623
-0.05055004 -0.038105413 0.054642845 0.39276326 -0.22120571 -0.15905938 -0.0012158055 0.21344763
0.05901809 -0.20159785 0.049138922 -0.115707606 -0.2604941 0.013427458 -0.1502102 0.22578679
0.12972684 0.48275408 -0.20537958 0.24364896 -0.29374307 -0.07929821 0.06972136 0.028812181
0.28298825 0.016781237 0.0576536 -0.023253845 0.0013971146 0.4655307 0.3736873 -0.031778753
0.23772204 -0.12835787 -0.10143661 -0.10671215 0.13629311 0.70791936 -0.3843567 0.36301973
0.076162584 0.12872545 -0.010325577 0.12901783 0.0347867 -0.029717281 0.2442675 0.21120182
0.5246825 -0.1863383 -0.1951405 0.17447421 -0.30736098 0.3224928 -0.07910297 0.021699205
0.6985123 0.002691444 -0.055243623 0.22505227 0.4141835 0.026374834 -0.2708989 -0.05064334
0.25140223 0.003102293 -0.2373892 0.15048556 0.48470008 0.09215986 0.046272296 0.49130782

lstm.bias_hh_l0 f4 [256]
00000000: e545 c5bd 5987 d73e 2731 213e 6d85 0e3b
00000010: 257e 16be 371b 473b ca97 b03e 7860 743c
00000020: ccaf a8bd 4507 c23d 95a3 4f3e 4470 af3e
00000030: 6d63 88bd ded3 753e bdd6 523e 8624 e9bd
00000040: 705c 713d 8ec6 61bd c238 20be 1efb 133d
00000050: 828b 87be 3dd6 263d 5d95 51be 8237 383e
00000060: b699 a33d 2715 9bbe 468c 373e 5371 473e
00000070: af8f 583e 9f44 063d c4dc be3d 316d c1bd
00000080: 81ce 043f fc89 79be c170 d73d 067b aa3d
00000090: ff27 79be 1ac4 923e 4ae9 3bbd 3b49 623e
000000a0: 4ec1 7a3d 35d0 853e 524d 403e c709 5e3e
000000b0: ddbb 85be 9ba0 253e b120 d5be c40b 07bf
000000c0: fd9d 093e 975a abbe 33f5 533e b10d 973d
000000d0: 83f0 0ebe 6285 493e 5fc9 57be 18f1 c13d
000000e0: 490d 3c3d 74da 99be b1be aabe af58 e83e
000000f0: ac42 2f3d 8116 c8bd fec1 1abe a9fa 963d
00000100: 26ea c5be f985 103e a07a c5be 7d43 653d
00000110: c01c 6fbe 0246 553e f587 82be 8737 053f
00000120: 3241 1fbc c56d 033e 4969 173e 459a 4d3e
00000130: a01f 253f c4ff 2dbe 422a cdbb 0854 da3d
00000140: 34d6 333e d838 033e d286 66bc 51b1 a1be
00000150: 9555 6dbe b10f 1b3e 3d04 c03c c0f3 e2bd
00000160: 6e07 c4bd 6a24 f3bd 38e8 663b bd27 8dbe
00000170: 8358 8bbd 8277 7d3e c588 b33e 1dbf eabd
00000180: e68d 983d ce5c c1be 23c1 0fbe 5944 0a3e
00000190: 3388 bbbd 99f5 2e3e 00f1 33be 056e 9ebe
000001a0: c521 2bbb a928 efbc 24c8 553e cdd6 4f3e
000001b0: 3669 90be 5105 803e c3d4 d6bc 23fe 473d
000001c0: 001c c93e eeec 7bbd 1d19 d9be b10c 203c
000001d0: 2943 02be 78e7 aa3d 28f1 ccbe bd97 423d
000001e0: b0f5 1a3e 5567 503d ef05 15be 2913 9d3e
000001f0: ee21 ca3e cddd f53c 89f8 da3d b8c3 9d3d
00000200: f51f 463e f348 24be 6253 da3e 880c 943e
00000210: 4b41 4b3c 973e 53be 604d 55be d192 9dbd
00000220: 0026 dfbc 4654 00be 2b30 e33e c923 ecbe
00000230: 21dd febe acb9 603e 7555 e93e 2422 84bd
00000240: bc9e b83e 748e 2f3d 9d63 363e e7a3 6e3e
00000250: a0f3 a73d 4f2c c0bd 4045 28be 4eac f2bd
00000260: e163 f3bc c185 043e 9f37 66bd 1ee1 2cb9
00000270: 43d0 93be fa0d cc3e 9b76 7ebd b318 243e
00000280: bb43 50bf 0399 da3e a229 4ebe e319 00be
00000290: 570a f8bc 41aa c23e 1b3b 45be 170b e7bd
000002a0: 107b 86be bfb7 7f3e 68d8 fdbe b1a2 1e3e
000002b0: 7519 ee3c 0221 85be 11d5 8abe 88b8 eb3c
000002c0: 92b4 afbe 610a 82be 5107 0d3e 6c4a 86be
000002d0: 885b f23d 9e2d 293e d57e fbbd 6726 aa3c
000002e0: 07ff 48bc fa8a 233d 27fb 843b fe24 983e
000002f0: 48b7 b2be a080 a5bd d81d f8bd 7b1d 413e
00000300: 3105 6b3e 957b 2abe 748d eb3c 69dc 7cbe
00000310: bb11 28be 0e46 f43d bfc9 69bd 3b2e aa3e
00000320: 8542 373e 7e66 053f 25c8 c5bd 6ce9 7d3e
00000330: 84ea 80be ee6a dfbd a5e4 523e ff14 053d
00000340: d265 a43e cd6f 73bd 41f2 6f3e f1a2 e5ba
00000350: c048 89bd 4e06 8a3e 6351 723e 6a73 d53c
00000360: 82a8 413e b8c3 893b d56f feb9 0c6c 863d
00000370: 328b 523e 48e6 383f 9f21 adbe ebd4 a53e
00000380: 393c 923d 98f3 b73d 328f 02bd 7429 ec3d
00000390: 1dcf 94bd 566a 84bd c6e6 9d3d 4027 6d3e
000003a0: 9bf0 003f 38e2 42be dcb3 edbd 97d0 913d
000003b0: 76e2 5ebe b9c2 8f3e cbbe 69be cf41 0d3d
000003c0: 9ba2 023f 682b 373d 7716 e9bd 59a3 df3d
000003d0: 8446 cd3e 753f 193d d390 81be b7af 1bbe
000003e0: 48b0 ab3e a109 793c 7964 8bbd e972 eebc
000003f0: a574 d93e ed80 513d 2ed1 09be 339f c33e
-0.09632472 0.4209545 0.15741406 0.0021747008 -0.14696558 0.0030381212 0.34490806 0.014915578
-0.082366556 0.09474043 0.20277245 0.3426534 -0.06659589 0.24006602 0.20589729 -0.113839194
0.058926046 -0.055120997 -0.15646651 0.036128156 -0.26473624 0.040731657 -0.20467134 0.17989925
0.079883024 -0.30289575 0.17924604 0.19476824 0.21148561 0.032780286 0.093194515 -0.09444655
0.518776 -0.24369043 0.10519553 0.08324246 -0.24331664 0.2866524 -0.04587678 0.22098248
0.061219506 0.26135412 0.18779495 0.21683417 -0.2611989 0.16174547 -0.41626504 -0.5275233
0.13439174 -0.33467552 0.20699005 0.07375658 -0.13958935 0.19679788 -0.2107291 0.09469813
0.045911107 -0.3004948 -0.3334861 0.4538016 0.042788193 -0.09769917 -0.15113065 0.073720284
-0.38655204 0.14113607 -0.38570118 0.055972565 -0.23350811 0.20827487 -0.25494352 0.52037853
-0.009720134 0.12834843 0.14786257 0.2007838 0.6450138 -0.16992098 -0.006261141 0.10660559
0.17562181 0.12814653 -0.01407023 -0.31580594 -0.23177178 0.15142705 0.023439521 -0.11081648
-0.095717296 -0.1187218 0.0035233628 -0.2756938 -0.06803992 0.2475262 0.35065284 -0.11462233
0.0744894 -0.37766117 -0.1403852 0.13502635 -0.09156837 0.17085876 -0.17572403 -0.30943313
-0.0026112658 -0.029194193 0.20877129 0.20296784 -0.2820527 0.25004056 -0.0262245 0.048826348
0.39279175 -0.06150525 -0.42401972 0.009768651 -0.12720932 0.083449304 -0.40027738 0.04750799
0.15132785 0.050879795 -0.14553045 0.3067868 0.3947901 0.03001299 0.106919356 0.07703346
0.19348128 -0.16043453 0.4264174 0.2891581 0.012405704 -0.20629345 -0.20830297 -0.07694019
-0.0272398 -0.12532148 0.44372687 -0.46121052 -0.49778083 0.21945828 0.4557301 -0.06451824
0.36058605 0.042860463 0.17811437 0.23304711 0.08200765 -0.09383451 -0.16432667 -0.11849271
-0.029710712 0.12941648 -0.05620539 -0.00016487061 -0.2886983 0.39854413 -0.06212483 0.16025047
-0.8135335 0.42694864 -0.20133069 -0.12509875 -0.030278368 0.38020518 -0.19260828 -0.11281412
-0.26265764 0.24972437 -0.49579167 0.1549175 0.029064873 -0.26001745 -0.27115682 0.028774515
-0.34317452 -0.25398543 0.13772322 -0.26228654 0.118338645 0.16521308 -0.12280051 0.020770265
-0.0122678345 0.03992746 0.00405826 0.29715723 -0.34905457 -0.08081174 -0.12115067 0.18858902
0.22951199 -0.16648705 0.028753974 -0.24693455 -0.16413014 0.11927424 -0.057077166 0.33238396
0.17896469 0.52109516 -0.09657315 0.24796075 -0.2517892 -0.10909067 0.20595033 0.032490727
0.32108933 -0.059432793 0.23432256 -0.0017519874 -0.06703329 0.26957935 0.23663859 0.02605601
0.18911937 0.0042042397 -0.00048529977 0.06563577 0.20560911 0.7222638 -0.33814713 0.32389006
0.07140393 0.08982009 -0.031874843 0.11531344 -0.07266066 -0.064655945 0.07710032 0.23159504
0.50367135 -0.19031608 -0.11606571 0.071198635 -0.21766075 0.2807825 -0.22826688 0.034486588
0.51029366 0.04471913 -0.11381238 0.10919828 0.40092862 0.037414033 -0.25305805 -0.15203749
0.3353293 0.01520005 -0.06806273 -0.029107528 0.42471805 0.051148344 -0.13458702 0.38207397

lstm.weight_ih_l1 f4 [256, 64]
00000000: 4f9b 57be c437 86bf bb41 5fbe 46de d7bd
00000010: 5f2e b0bd 581a 823d afe4 4f3f 6cc2 b6bd
00000020: 3ee2 e93d d8aa 913c bf74 7f3e b5c3 5f3f
00000030: 794a f13e 2f4a cfbe 251b 9bbd a271 bc3e
00000040: e975 c8be dede 243e 328e 8cbc f15a a03e
00000050: eb1a c7bd c7fc 1bbe 9998 c9be 50b8 693f
00000060: d25d 2b3d 582b b6bd d02d 02bf 1e8a 72be
00000070: 4ce1 3abf 0b3b 2fbd 28d5 af3e 7750 67be
00000080: 99df 27bf 208c 84bd f9c7 b13e 9677 7dbe
00000090: 3427 9dbf 7fd2 183e 5e15 363e 65e6 533f
000000a0: 80d7 bcbe 30e3 3bbf 2d89 b03e 73e4 f43e
000000b0: 483e f0be 4108 93bd efb7 2b3e c932 c3bb
000000c0: 8ab3 fa3e 1a46 bf3d 15e1 a83c 11c1 723d
000000d0: e422 6ebe c18a f2be 7891 f23d 5b48 13bd
000000e0: 091e 443e afda 93bf 5c0b 29bd 875a 46be
000000f0: 6341 e9bc 9175 133f 7a74 373f 8ae2 f93d
00000100: 88bd 95be af96 b1be 9b92 113e 766a 0e3d
00000110: 3b97 0ebf 2fbd 0dbd 95cd 8d3f 42f8 923c
00000120: 6f96 69bd c3ec 073f 3060 d8be 9984 083f
00000130: 8fa9 0f3e a916 523d 4226 f0be 92d8 89bf
00000140: 271f f8bd 5451 543f 9e5e 47be c8c4 9ebd
00000150: ccd8 f93c bb8d 543d 283b 0ebf 7d4e bebe
00000160: 1b76 243e a2e4 02bf 37e8 753d 9b4a 393e
00000170: de7e bcbd 8a0e 04bf 7648 bfbd effd 6fbe
00000180: 4554 c23e 4143 dfbe 6d71 f8be 8096 653e
00000190: ad1e e33e 4341 8f3e b755 d33e 6e66 8b3e
000001a0: 39af f33e 3960 a03d b681 683e 3d9c 943d
000001b0: 7cb1 983e f446 fb3c 5ffd 14bf 8a71 053f
000001c0: 8fec d13e 3f61 dfbd 9c0d 2e3c 2160 c43b
000001d0: c526 14bf 0d4c 2bbf 45ad 873e f38b ae3d
000001e0: c8aa 863e 8358 1bbb 2592 0cbd 5d40 273f
000001f0: 56dc 8ebd b9c1 903e a92e 7dbf 6cb4 2a3c
00000200: 9f3f fbbd 7762 2f3f a3cf 383e c0c0 06bf
00000210: c67f 22be 9463 58bd f16a fb3d 6bed 03bf
00000220: f3f9 60bb dedc 1abe 77b6 cbbd a344 8d3f
00000230: edbf 85be f5b2 c6bc a6b6 9ebc e55d a83e
00000240: 7141 813e a3be 023f d257 ccbe 363e 6d3e
00000250: b4e3 153d 3dfe 0dbc b6d6 af3e 1b78 e93e
00000260: 37a3 d93b 78b8 8f3d 87bc 19be a3d4 b13e
00000270: dee2 923d 029c 3b3e a421 cf3e bef5 67bd
00000280: 160a c8be 62c3 8d3e 91d1 67be deab 3abf
00000290: b431 5a3f 2e95 123f ab58 20bf ff47 d2be
000002a0: de9e b13d 5858 8bbe 1f40 633e 5c9b 143e
000002b0: 0673 053e 382b 5a3e 7b3f ce3d d8bf 24bd
000002c0: 807e 083f 38c4 603e 3543 b63d d952 3abe
000002d0: 52c2 14be 3ec4 92be fc8a 8f3e bb37 b73c
000002e0: 7481 d4bd 3676 0dbf e8f7 a0bd f6aa e8bd
000002f0: 8356 67be 3d8b 7a3f 36a7 cfbe 61e7 b6bd
00000300: 5fdb 20be 62a9 0ebf 72be 233e fd03 40be
00000310: 294f 7bbe 1fd3 043e d6c0 01be daca 7cbd
00000320: af98 aebe a9f8 763d b198 52bc 3848 573f
00000330: e8cd d5be 8802 85bf ce49 e83d b4a1 543e
00000340: 286f 083e 30c6 63be 0055 8dbe df55 9cbe
00000350: 150f 923e 6611 4e3e 4876 1d3e 7629 afbd
00000360: 4125 b33d dca5 a13d f9e3 27bf d453 8ebc
00000370: fdf5 e83d 4cac 1cbf 9226 98be 9762 8abb
00000380: 2b22 94bc ad33 d5bd 8c59 56be 4666 543f
00000390: 8357 ab3e 9305 c1be 569c a23e 418a aabd
000003a0: d213 9f3e 0462 14bf 14a9 083e 2786 2dbd
000003b0: 5dbc 2bbe 49b3 8bbe 4434 973d a715 653e
000003c0: b56c 3c3f b2f0 893e f3d0 3d3e a33c debd
000003d0: b484 963e bfb0 173f 8e52 afbe 99ef 3d3d
000003e0: 9e9c 65bf c0bb 6cbe bfe7 ccbd cd16 463f
000003f0: 9ac9 5e3f 263a 50bf 5667 d3be fb4c a3be
-0.2105534 -1.0485768 -0.21802418 -0.10540442 -0.086025946 0.06352681 0.8120832 -0.08923802
0.114201054 0.01778166 0.24946879 0.87408 0.4712713 -0.40486285 -0.07573537 0.36805445
-0.39152458 0.16100642 -0.017157648 0.31319383 -0.09721931 -0.15233146 -0.39374235 0.91296864
0.04183752 -0.08894986 -0.50851154 -0.236855 -0.73000026 -0.042780917 0.34342313 -0.22589289
-0.6557556 -0.06472039 0.3472288 -0.2475265 -1.2277589 0.14924048 0.17781588 0.8277343
-0.36883163 -0.73393536 0.34479657 0.47830543 -0.46922517 -0.07179309 0.16769384 -0.005956982
0.48965102 0.09339543 0.02061514 0.059266154 -0.23255497 -0.47371486 0.11844152 -0.035957675
0.19152083 -1.1551112 -0.0412706 -0.19370471 -0.028473562 0.5760127 0.71662104 0.12201412
-0.29246163 -0.34685275 0.14216082 0.034769498 -0.5569951 -0.034604248 1.1078364 0.017940644
-0.05702823 0.53095645 -0.42260885 0.5332733 0.14029525 0.05129114 -0.46904188 -1.0769217
-0.12115317 0.82936597 -0.19469687 -0.07752377 0.030498885 0.051892977 -0.55559015 -0.37169257
0.16060679 -0.51130116 0.06003591 0.18094866 -0.092038855 -0.51584685 -0.09339993 -0.23436712
0.37954918 -0.43605998 -0.48524037 0.22420692 0.4435934 0.27979478 0.41276333 0.27226585
0.47594622 0.07830853 0.22705731 0.072563626 0.2982291 0.030673482 -0.58199114 0.5212637
0.41000792 -0.1090722 0.010623362 0.005992905 -0.5787166 -0.6691292 0.26499382 0.08522787
0.2630217 -0.002370388 -0.03431906 0.65332586 -0.069756195 0.282728 -0.9889932 0.0104189925
-0.12267994 0.6850962 0.18047957 -0.52637863 -0.15869054 -0.05282934 0.12276257 -0.51534146
-0.003432867 -0.15123317 -0.09946912 1.1036571 -0.2612299 -0.024255255 -0.019374203 0.32884136
0.2524524 0.5107214 -0.39910752 0.23168263 0.036594108 -0.008666572 0.343435 0.45599446
0.006641771 0.070176065 -0.15013324 0.3473254 0.07172178 0.18321231 0.40455353 -0.056630842
-0.39070195 0.27688128 -0.22638537 -0.729185 0.8523209 0.5725888 -0.62635297 -0.41070554
0.0867288 -0.27215838 0.22192429 0.1451239 0.13032159 0.21305549 0.10070702 -0.04022202
0.53318024 0.21949852 0.088995375 -0.18195666 -0.14527252 -0.28665346 0.28035724 0.022365442
-0.10376254 -0.552585 -0.07859784 -0.11360733 -0.22591595 0.9786871 -0.4055726 -0.08930851
-0.15708683 -0.5572721 0.15990618 -0.18751521 -0.24541916 0.12971161 -0.12671217 -0.06171689
-0.34100863 0.060295735 -0.012853787 0.8409457 -0.41758657 -1.0391397 0.11342202 0.2076481
0.13323653 -0.22243571 -0.27603912 -0.30534264 0.28527132 0.20123824 0.15377152 -0.0855283
0.0874734 0.07892963 -0.65582234 -0.017373957 0.113750435 -0.61200404 -0.29716927 -0.0042231786
-0.018082699 -0.10410247 -0.20932597 0.82968557 0.33465204 -0.37699565 0.317599 -0.08327151
0.3106981 -0.5796206 0.13345748 -0.042364266 -0.16771074 -0.2728522 0.07383016 0.22371541
0.73603374 0.26941448 0.18536739 -0.10851409 0.2939812 0.5925407 -0.34242672 0.046371076
-0.89692104 -0.23118496 -0.100051396 0.7737854 0.8702637 -0.8133873 -0.41289777 -0.3189467

lstm.weight_hh_l1 f4 [256, 64]
00000000: 711a 113e 411b 68be 91fd 043f d2c2 9bbc
00000010: 5774 9dbd 1d04 e83e f099 4a3d e398 573e
00000020: e19c 443e 9dff 133e fa87 c3bd 116d cbbe
00000030: 7282 a1be dba2 04be 59ac 993e a05e 44be
00000040: 7cb2 18bf 7afc 973c 476c 683d 13bc 033e
00000050: 7c21 24be 515c 453d a0da 263e 1eba 223f
00000060: 5068 8a3e 40a6 943d 238b 073f fef0 49be
00000070: b9a0 953e 5e12 45be 5dfb 6dbe d009 5bbe
00000080: a476 bb3e 41f0 833d 82eb 023f 82b6 b63e
00000090: 5a35 81be 2de0 11be 07b6 3ebf ee9e 063f
000000a0: f445 bc3e 2ad9 0dbe 4d5d 30bd 347e a7be
000000b0: 58d8 563d 5067 70be 650a 1a3e d468 183e
000000c0: 4a54 bfbe eefa babe 9381 40bc d7ea f9bd
000000d0: d35e d5bb 71bc 60be 206d d6be 7465 3abe
000000e0: 6905 ac3e a6c9 df3e 64cc c6be 4d84 ea3d
000000f0: a363 adbe 19a3 d4be 51a6 94be c582 dd3e
00000100: 89aa 243e edb5 aebe 8550 61be f412 913e
00000110: 102d 423f b46f f03c e559 00be 3530 853e
00000120: b6ce c2bc 238a 843e 712b 53be fbb3 8ebe
00000130: 052b cabd 9589 b9bd a9ea 843e 1f43 ea3e
00000140: ead0 f93d 5c2e 743e 3de8 3d3e 0bf4 0a3f
00000150: 2f2c f9bd 7bc6 0bbf e145 7ebe 5164 e5bc
00000160: f354 a5be 7da2 bb3e 0497 70bf d958 2b3e
00000170: 6192 803b 7c12 4cbe 22af 843e a0f0 663e
00000180: ec78 babe e313 45be d926 8dbe 2ecd cebd
00000190: 5e6a 1a3d f0c4 0fbe ceda 3bbe e07f 0fbe
000001a0: 974b cfbd 4741 8dbd 2aec fc3d 7c91 a93d
000001b0: 9acf 703e 29c0 91bc db60 0bbe 4cfd 7a3d
000001c0: a684 ebbe 7000 263e bb52 993e 537e f1bd
000001d0: ff72 c3be ce03 49be ba65 a6be e192 a73e
000001e0: 025c 933d 6ba1 91be 4029 c73e a1f6 193e
000001f0: a2a1 6cbe 4049 8dbe 3752 a23e 2491 243d
00000200: 273d 30bf 990c f73e 2dd3 5f3e b0e9 ecbe
00000210: c072 aebe 0d34 40be 8f7f fe3e a92e 8b3e
00000220: 95fb 4b3e 2768 233e 7281 4d3e bc95 b53e
00000230: 7b91 5a3e 01be 7e3e fbad bebe bf9d 293e
00000240: 2e3a 2f3d 93f4 183e ee1b c83d 0a68 37be
00000250: b781 a7bd 0199 113e 7acb 86be 3850 9fbd
00000260: c02a 56be 330e 62bd 1fe5 dbbe 9862 583d
00000270: c739 b6bc 0fee 063e 5722 403e 6d7e d3be
00000280: e336 22be 967b cfbe 07ff ca3d f310 2dbf
00000290: bb8d 6bbc 4f4d d9bd 449b dabd 90d9 d53d
000002a0: 9ecf 9abe 3d00 22bf 803f d23e 3c9e 803c
000002b0: 9c37 ce3d f05c ea3e d4a7 1bbe 1732 b9be
000002c0: 128c 853e c85c 7ebe 0837 b33d 2c16 8d3d
000002d0: f433 593e 0b19 65bd a5f9 893d 1cb5 d23e
000002e0: a5fc a1be 7aca c4be acc5 c73e 6262 0ebd
000002f0: 65f3 06be 9bcb 833e 11b3 883e 0ca0 bdbd
00000300: b024 07bd 08f1 a33e ebec 2b3f 6a33 13bf
00000310: 73b4 323e aac0 aebe 976f c5be 7852 e8be
00000320: 2bd1 063f 829e edbc c1b4 323e d11c debe
00000330: 1bcc b53e 7fce 8d3e 6b1b b33e 62ec 273e
00000340: 7622 083f 819d 85be 5441 97bc f655 6b3e
00000350: feac 9ebe 7794 013c f077 223e f010 183e
00000360: 7218 283e 8604 343d f3e0 fabe 6881 b13e
00000370: c918 6fbd 7a70 6fbe eb64 bbbe 902e 7abe
00000380: 6dab 073e 5e7d d43d d7d6 a93d d7fe b83e
00000390: fce9 d8bd ae82 69be f741 c7bd 3b10 94be
000003a0: 6c26 c83e e04f 903e 1d92 e6bd 1345 80bd
000003b0: 76e7 e33e 6021 1cbf 8e32 1bbe 4285 cebc
000003c0: 0447 5e3f 6ec5 4b3d bea9 95be cc74 073f
000003d0: dd1c 01bf f0ce cbbe a7b2 70be 4b36 d7bb
000003e0: 9047 aa3e b9df 9dbe 6679 aebd fde6 1c3e
000003f0: 9907 c7be 57e3 963e ea3e 9bbe 115a a43e
0.14170243 -0.22666647 0.5194941 -0.019013796 -0.07688206 0.45315638 0.049463212 0.21054415
0.1920047 0.14452977 -0.0954742 -0.3973165 -0.31544834 -0.1295275 0.30014303 -0.19176722
-0.59647346 0.018553007 0.056743886 0.12864713 -0.16028398 0.048183743 0.16294336 0.6356524
0.2703271 0.07258272 0.5294668 -0.19720837 0.29224184 -0.19245288 -0.23240419 -0.21390462
0.36613953 0.06442309 0.51140606 0.35686117 -0.25236017 -0.14245673 -0.744965 0.5258626
0.3677212 -0.13852373 -0.04305773 -0.32713473 0.052452415 -0.2347691 0.15043028 0.14883739
-0.37368995 -0.3651957 -0.011749643 -0.12202995 -0.006511548 -0.21946885 -0.4188013 -0.18202764
0.33597878 0.43708533 -0.38827813 0.114510156 -0.3386508 -0.41530684 -0.2903314 0.43263832
0.16080679 -0.34123173 -0.22003372 0.28334773 0.7585001 0.02935014 -0.12534292 0.26013342
-0.023780208 0.2588664 -0.2062204 -0.2787169 -0.098714866 -0.09059445 0.25960281 0.45754334
0.1219805 0.2384581 0.18545623 0.5427863 -0.121666305 -0.5459973 -0.24831344 -0.028001936
-0.32291374 0.36647406 -0.9398043 0.16733111 0.0039236997 -0.19928926 0.25914866 0.22552729
-0.3642038 -0.19245867 -0.275687 -0.10097729 0.037699096 -0.1403997 -0.18345186 -0.14013624
-0.101218395 -0.06897216 0.12349732 0.08279702 0.23516694 -0.017791824 -0.13611166 0.06127672
-0.4599964 0.16211104 0.2994593 -0.117916726 -0.38173673 -0.19630358 -0.32499486 0.32729247
0.071952835 -0.28443465 0.3889866 0.15035488 -0.23108533 -0.27594948 0.3170335 0.04017748
-0.6884331 0.482518 0.21857901 -0.4627204 -0.34071922 -0.18769856 0.49706694 0.27184036
0.1992019 0.159577 0.2006891 0.354658 0.21344559 0.24877168 -0.37242112 0.16564082
0.042780094 0.14937048 0.09770952 -0.17910782 -0.08179038 0.14218523 -0.26327115 -0.077789724
-0.20914745 -0.055189323 -0.42948243 0.0528284 -0.022244347 0.1317675 0.187631 -0.41307393
-0.1584125 -0.40523976 0.09911924 -0.6760399 -0.014377053 -0.106104486 -0.10674146 0.104418874
-0.30236524 -0.63281614 0.41064072 0.015700452 0.100692004 0.4577403 -0.1520074 -0.36171028
0.26083428 -0.2484008 0.08750731 0.068889946 0.21211225 -0.055932086 0.06737069 0.411538
-0.31638065 -0.38435727 0.39018 -0.034761794 -0.13178785 0.25741276 0.26699117 -0.09259042
-0.032993972 0.3201983 0.67158383 -0.57500327 0.17451648 -0.34131366 -0.385617 -0.4537542
0.52662915 -0.029006246 0.17451765 -0.4338136 0.35507283 0.27696607 0.34981856 0.16398767
0.53177583 -0.26096728 -0.018463768 0.2298201 -0.30991358 0.007908932 0.15866065 0.14850211
0.16415575 0.043949626 -0.48999748 0.34669042 -0.058373246 -0.2338275 -0.36600432 -0.24431825
0.13248987 0.103754744 0.082929306 0.36131927 -0.10591504 -0.22803757 -0.09729379 -0.28918633
0.39091814 0.2818594 -0.11258338 -0.06263175 0.44512528 -0.60988426 -0.15156004 -0.025210027
0.8682711 0.04974883 -0.29231066 0.5291259 -0.50434667 -0.39806318 -0.2350565 -0.0065677515
0.33257723 -0.3083475 -0.08519249 0.1532249 -0.38872984 0.29470322 -0.30321437 0.32099965

lstm.bias_ih_l1 f4 [256]
00000000: 240c b13c c534 ac3b 3806 cbbd 12a5 08bd
00000010: a44a 0abe cef9 323e d10e 873e 119d 113d
00000020: e125 623e de9e 0d3e c588 cd3d 9138 e1bc
00000030: c6ce 6d3d c93e 8f3e 4a2a cc3d fcab 10be
00000040: 6142 303e ebde c83d 4a9a 91bd d4b5 5f3e
00000050: d764 463d bc5d a0bc 8d64 513e 7dce 8f3d
00000060: 10e4 d0bb 850c 8f3d 5036 fe3d cbb3 34be
00000070: 28cf 5b3d 7b75 9c3e 6cef f43d 4044 ad3d
00000080: 77f5 3b3e 0f09 623e 9cec 71bd 6804 ad3e
00000090: 6b68 a9be 20cd 7fbe 92f8 0f3e e269 8d3e
000000a0: 59b1 893e 31ce bd3e a66a 33be 5a5a a03e
000000b0: 9fa5 233d ae4f 22bd 8bd1 bf3e 6654 733e
000000c0: fd18 3abd 2bef 923e d04a 013f 8540 0abe
000000d0: 05bf ccbd a570 6f3d 919a 23bc 7eb6 23be
000000e0: e506 fc3d 4fe0 71bd 81d2 a3bd f46e 233e
000000f0: cbb3 8b3e 1ceb db3e 3d75 933c adfb 503e
00000100: 1c61 3cbe e1cd 36be d5a0 26be 179e 1fbe
00000110: 7b39 64bd 4043 b5bd 48c8 b7bc 49d6 9bbe
00000120: 3ee9 7bbd d05f 70be d6b3 b5bd a3d0 33be
00000130: 27c4 cd3e 4cc9 36bd 25b6 d1bd 5753 ecbe
00000140: 9062 ebbd bd26 2abe 5067 19be 0c3b 0cbe
00000150: 8d9b bdbc ffc5 90bd f459 e9be 38b7 27bc
00000160: 6f68 07bd c4aa babe fd09 02be 9276 3ebe
00000170: 43f9 483e 7f74 ddbd 9c04 82be e7a3 17bd
00000180: 814a 0cbe f458 37be bd59 c03d 957b bebc
00000190: 504f 29bd 52f1 6dbe 594d 8bbe d746 30be
000001a0: 7fe6 ea3d 8c80 2fbe 2a07 69be ae57 653e
000001b0: 10dd 19bc 7b0a a4be d992 a73e 6346 433e
000001c0: a813 15be f111 5b3e fc3e a63e a060 82be
000001d0: 9c67 8fbe 1981 36be caca 4abe 3b09 88be
000001e0: 4f44 4cbe 88e6 b0bc bd74 98be c158 f13d
000001f0: 7ad9 023d bdd2 2a3e 5353 1cbe 58ad 853e
00000200: 4daf e13d ce8d b83c 256a ccbb 9e45 54bc
00000210: d5c5 f8bc 2e20 8b3e d20b 65bd b7c5 9ebd
00000220: 3fb1 4cbe 4627 a13e 560e 47be 7dc5 8e3c
00000230: d576 8dbe 5f49 2dbd 51aa 413e 448f 463d
00000240: fe93 83be dc30 293e 7eda 223b 8658 593e
00000250: bb5f fcbd 5724 593e 3a8b 87bd 030f 573e
00000260: 2a1d b1bc daa9 42be c2bc 1bbe e840 cb3e
00000270: e81c 24be 41e6 b0be 4a73 743e beff 8f3e
00000280: b762 8b3e b910 393e 9064 d7bd 6c9b 813e
00000290: dd81 603e f991 aebd 6ae6 a63d 7f6c 713e
000002a0: c293 7c3e 9b25 80bd 71bc 0fbe 4075 b8be
000002b0: 0176 56be dfd2 e4bd 15ea 6bbe 758b 713e
000002c0: 097f 8c3d 250b c3be b8e9 73be 4bdd aebd
000002d0: d038 d33d 2f5c 75be 8fb2 ad3d 8393 35bc
000002e0: 0a34 2d3e 2871 a73e 8671 993d 29f9 ae3d
000002f0: d742 163e d786 aabe f38f 793d 5fda 2e3e
00000300: 0cfa 073e ac67 82bd 1f49 6d3c 1a1f 9cbc
00000310: f494 e2bd 67d0 0b3e 8f4b 983c a442 053e
00000320: 0b74 1a3e fab3 093e 5de4 373e 9fcf 493e
00000330: 24fb 11bd 0190 7b3e 4c01 fe3c c950 1a3c
00000340: 5323 57bc b8bd cf3d 8005 d5bd e58d c93e
00000350: 98bb c73c 2ff5 813c d22d 993e 12ef afbd
00000360: fb30 b63d 8ba8 6b3e db9a 273e 92ca 253d
00000370: b72d 133d 0ec8 22bd 9688 0ebe b030 e63d
00000380: 5873 813e 35bd ba3d f05a 153e 4e0a 273e
00000390: 5a45 9abd 35af 063c 95ca fa3d 84e5 4d3e
000003a0: af85 463e 6145 d73e a7c7 2dbe bcd6 533e
000003b0: 7a42 353d 28f7 b6bd 7c91 bd3d c2c9 0f3e
000003c0: 1d54 53bd d45f 5b3e c931 b83c 7792 413d
000003d0: dd4e 3bbe 38dc a53d c1a5 8fbb f31a f7bd
000003e0: 07e3 023e 4312 403d f3a8 903d aa7d 93bd
000003f0: b0a0 cc3e b199 8c3d d330 eb3d e62a 4f3e
0.021612234 0.005255314 -0.099132955 -0.03336055 -0.13505036 0.17478105 0.26378492 0.03555018
0.22084762 0.13830134 0.10035852 -0.027492793 0.058058523 0.2797759 0.099690035 -0.14128107
0.17212822 0.09808143 -0.071095064 0.21846706 0.048436012 -0.019575946 0.20448513 0.070218064
-0.0063748434 0.0698481 0.12412703 -0.1764671 0.053664356 0.3055838 0.119597286 0.08460283
0.18355356 0.22073768 -0.05906354 0.33792424 -0.33087477 -0.24980593 0.14059666 0.27619845
0.26893118 0.37071374 -0.17521152 0.31318933 0.03995287 -0.03962677 0.37464556 0.23762664
-0.045433987 0.28698096 0.5050478 -0.13501175 -0.099973716 0.058457036 -0.009985582 -0.15987584
0.123060025 -0.059051808 -0.07999135 0.15960294 0.2728561 0.42952812 0.01800024 0.20408507
-0.1839642 -0.17851974 -0.1627229 -0.1558765 -0.05571888 -0.088507175 -0.022434369 -0.30436924
-0.061501734 -0.2347405 -0.088721916 -0.17560057 0.40188715 -0.044625565 -0.102398194 -0.46157333
-0.11493409 -0.1661634 -0.14980817 -0.136944 -0.023145461 -0.07069015 -0.4557644 -0.010236554
-0.03305858 -0.3645841 -0.12699123 -0.18599918 0.19626336 -0.108132355 -0.25394142 -0.037021544
-0.13700296 -0.17905027 0.09392116 -0.023252288 -0.041335404 -0.23236588 -0.2720745 -0.17214523
0.11469745 -0.1713888 -0.22756639 0.22396728 -0.009391084 -0.32039246 0.32729223 0.19069819
-0.1455828 0.21393563 0.32469928 -0.25464344 -0.28008735 -0.17822684 -0.1980392 -0.26569542
-0.19947933 -0.0215943 -0.29776564 0.117845066 0.031945683 0.16681953 -0.1526616 0.26108813
0.11019764 0.022528555 -0.0062382394 -0.012956051 -0.030367771 0.2717299 -0.055919476 -0.07752555
-0.19989489 0.31475276 -0.19439062 0.017428154 -0.27629724 -0.0423063 0.18912627 0.048476472
-0.25698847 0.16522545 0.002484947 0.21225175 -0.12322947 0.21205269 -0.06618352 0.2100182
-0.021620352 -0.19010106 -0.15208724 0.39697957 -0.16026652 -0.3455067 0.23872104 0.28124803
0.2722375 0.18072785 -0.10517228 0.2531389 0.21924539 -0.08523936 0.08149417 0.23576544
0.2466574 -0.06257173 -0.14036728 -0.36026955 -0.20943452 -0.11173033 -0.23038514 0.23588355
0.068601675 -0.3809444 -0.23819625 -0.08538302 0.103135705 -0.23960947 0.08481323 -0.011082533
0.16914383 0.3270352 0.07492356 0.08543617 0.14673935 -0.33306 0.060928296 0.1707549
0.13278979 -0.0636743 0.014482765 -0.0190578 -0.11063567 0.13653718 0.018590717 0.13013703
0.1508333 0.13447562 0.17958207 0.19708107 -0.035639897 0.24566652 0.031006478 0.009418675
-0.013130981 0.10143608 -0.1040144 0.3936607 0.024381444 0.015863983 0.2991777 -0.08590521
0.08896061 0.23013513 0.16367666 0.04047639 0.03593227 -0.03974157 -0.13919291 0.11239755
0.25283313 0.091181196 0.14585471 0.16312525 -0.07532759 0.008220484 0.12245671 0.20107085
0.19386934 0.4204512 -0.16970693 0.20687383 0.04425285 -0.0893386 0.092562646 0.14041808
-0.05159389 0.21423274 0.022484677 0.04725882 -0.18291803 0.08098644 -0.004383773 -0.12065687
0.12781917 0.046892416 0.070634745 -0.07201703 0.39966345 0.06865252 0.11483922 0.20231208

lstm.bias_hh_l1 f4 [256]
00000000: 4484 bebc b3b0 623d f7cf 83be 6c2d 7cbd
00000010: eb2c b4bd 3ae1 d33d a42a 393e 4f2d 56bd
00000020: 4949 8d3e e263 3b3e d485 403e b155 253e
00000030: f809 513d d842 253e cc9b e0bc 343c 47be
00000040: 141f 933c 9361 a8bd f580 8fbe dd3e 8e3e
00000050: 0137 2c3d 7778 b1bd 09bd 983e 7065 dc3d
00000060: c0e5 07be 6114 403e b37c bf3d 45dc 5bbc
00000070: 85da 0c3e 75b8 2a3e 0b02 0d3e fc3d 0f3e
00000080: bc2b 993d da84 463c a842 08be 6c74 a43e
00000090: 9f8b 93be 7972 aabe 46b8 c23d ca1f a53e
000000a0: 0324 933e 8cb6 843e 0409 d4bd 548e e53e
000000b0: 2cd3 863b a039 15be 0752 b53e a76f ac3e
000000c0: a248 fbbd 91f3 323e c6a8 093f 1ea9 8dbe
000000d0: 4884 7ebe dbd8 75bd 3c30 cdbd 154a aebe
000000e0: f847 8ebd 05c1 56bc 8e85 383d a868 193e
000000f0: c16e cd3e a327 e63e 11c9 4dbd 27d8 9d3e
00000100: beaf 54be 7915 27be e5b3 cdbd 5c5f 01bd
00000110: 4975 3bbe 1ce5 2ebd ec30 4bbd eb6b 4cbe
00000120: 34f2 f5bc c0d8 d7bd e789 9bbc aaac bebc
00000130: 32fa 4d3e 550d e5bd 0e67 4bbd c334 adbe
00000140: 20ff 1abe 1b6c 39be 1244 5abe b770 3dbe
00000150: db23 fbbd f293 bcbc ca45 69be 9f80 e73d
00000160: faed 0abe 9024 b9be da96 7fbe f59c 96be
00000170: 234b 6e3e 8893 b7bd c8d3 99be 8c3d d2bc
00000180: d40a c23a 829e 51be b9c7 a53d aa6f 4bbe
00000190: d06a ddbd 1d82 87be 053a 99be 7c98 89bd
000001a0: 8c45 85bc aa78 b5bd 4820 5fbe 7c2b 8b3e
000001b0: 0720 dfbd c908 09be 97ae 073e 7788 3e3e
000001c0: e65a bdbc 32ad b43e 0824 ff3e 2db4 90be
000001d0: 80e7 dabe a299 09be 809d 31be 448f babd
000001e0: 4711 a6be 00e9 debd 9ab9 9dbd 1f8f 0d3e
000001f0: c2dd 8bbc 204c f83d 634d 12be 20d9 b73e
00000200: 681f 0c3b adfb 123e 0b33 023d ea26 5dbe
00000210: b149 2d3e b6eb 693d bf79 95bc dab3 263c
00000220: 03df 08be 25ab 2d3e c843 adbc 9eaa 113d
00000230: 0f70 95be d667 f7bd 6547 163e 795f 84bd
00000240: 4165 73be 3000 3c3e fa4c b5bd 6015 273e
00000250: d2b0 ab3c 3dbb 4c3e b914 36be 2c91 a93e
00000260: 61cb f9bc 6200 31be f005 45be 78e9 b73e
00000270: 4b8c a6be 7d7e e3be 3414 e83d e824 143e
00000280: a176 cd3d dcc4 71bb cfd7 29bd d101 3a3d
00000290: 0c50 813e 0515 e53d cb2e 81bd 09bd 883e
000002a0: 3a66 063e a046 20be 57bf 9fbd 3abd b4be
000002b0: 34d0 ffbd dbb6 d4bd f1db 5ebe c4a9 543e
000002c0: eb9d e43c a58d 7dbe 3416 59be efb4 09bd
000002d0: 9c68 de3d 9165 b9bc c9f5 ec3d 3c82 ebbd
000002e0: a84b e93d b304 6f3e 9b8d 113e 8873 8f3d
000002f0: 4f2e 073e 634c 92be 20c4 96bd d7e8 6c3e
00000300: 7e9d 6f3d 9379 a2bd 4464 13bd 1c2a f6bd
00000310: 8d51 533d bfbb f73d 7a13 323e f25d 3e3c
00000320: 326c 0e3e 7139 933d b769 123e e7c3 533e
00000330: f54d 5abc fa36 cb3e 088d ecbd e4b5 16bd
00000340: 91cb c33d 4257 c83d 10af adbd 5b7d 833e
00000350: afc3 763e 1953 43bc 633d 813e 668a 2cbe
00000360: e4c5 bbbc af9e e83e 5753 40bd 6286 273d
00000370: e094 d8bd b9b1 cdbd 04a9 17be 465c 2e3e
00000380: 15a9 883e 831d 9c3d a48d 70bd d455 0c3e
00000390: e688 03be 0b1c b53d 3136 fc3d bd70 df3c
000003a0: 9353 233c 8791 923e 2441 aebe b228 533e
000003b0: 261f f23d 152e 0c3e a3b2 f0bd b023 7d3b
000003c0: 95d2 3c3d 93b8 9b3d 96ed 29be e4a6 b73d
000003d0: 2e18 8ebe 08b9 693e dc9b ebbd ca96 abbe
000003e0: 887b d2bc 889f e53b 03da 883d e199 4fbd
000003f0: 2a3f 823e 7229 ecbd 78b0 093e 9633 283d
-0.023256429 0.055344295 -0.25744602 -0.061566755 -0.0879763 0.10345693 0.18082672 -0.052289303
0.27594975 0.18299821 0.18801051 0.1614597 0.051034898 0.1613878 -0.02741804 -0.1945656
0.017959155 -0.08221736 -0.28028074 0.27782336 0.042044643 -0.08665555 0.29831722 0.10761535
-0.13271236 0.18757774 0.09349956 -0.013419216 0.13755234 0.16671927 0.1377031 0.13988489
0.07479045 0.012116635 -0.13306677 0.32120073 -0.2881746 -0.3329046 0.095078036 0.32250816
0.28738412 0.25920522 -0.10353282 0.4483515 0.004114529 -0.14572763 0.35414144 0.33678934
-0.12269713 0.17475726 0.5377315 -0.2766809 -0.24855149 -0.060021263 -0.100189656 -0.34040895
-0.06947321 -0.013107543 0.045049243 0.1498133 0.4012356 0.44952115 -0.05024058 0.30828974
-0.20770165 -0.16316785 -0.10044078 -0.031585082 -0.1830646 -0.042698964 -0.049607202 -0.19963042
-0.030022718 -0.10539389 -0.018986655 -0.023275692 0.20114973 -0.111841835 -0.049658827 -0.33829316
-0.15136385 -0.18107645 -0.2131503 -0.18500029 -0.12262698 -0.023019765 -0.22780529 0.113038294
-0.13567343 -0.36160707 -0.24959889 -0.29416624 0.2327085 -0.08963686 -0.3004439 -0.025664113
0.0014804252 -0.20470622 0.08094735 -0.19866815 -0.108113885 -0.26466456 -0.29927078 -0.06718537
-0.016268514 -0.088609055 -0.21789658 0.27181613 -0.108947806 -0.13382258 0.13250194 0.18606745
-0.023114633 0.35288388 0.49832177 -0.28262463 -0.42754745 -0.13437513 -0.17345238 -0.09109357
-0.32435057 -0.10884285 -0.07701416 0.13824128 -0.017073516 0.12123895 -0.14287333 0.3590784
0.0021381024 0.14353819 0.03178696 -0.21596876 0.16922642 0.057109557 -0.01824653 0.010174716
-0.13366322 0.16959818 -0.021150485 0.035563104 -0.29187056 -0.12080352 0.14675672 -0.064635225
-0.23769094 0.18359447 -0.08852573 0.16316748 0.020958338 0.199933 -0.17781343 0.3311857
-0.030492486 -0.17285302 -0.19240546 0.3592031 -0.3252891 -0.4443244 0.113319784 0.14467204
0.10032392 -0.003689102 -0.041465577 0.04541189 0.25256383 0.1118565 -0.06307753 0.26706722
0.13124934 -0.15651941 -0.07800167 -0.35300618 -0.124908835 -0.103864394 -0.21763588 0.20767885
0.027907332 -0.24761064 -0.21199876 -0.033619817 0.108597964 -0.022631438 0.11570317 -0.114994496
0.113913834 0.23341636 0.14214174 0.07004458 0.13201259 -0.28573903 -0.073616266 0.23135696
0.058499806 -0.07933345 -0.035984293 -0.120197505 0.051591445 0.120963566 0.17390242 0.011619078
0.1390846 0.071886905 0.1429814 0.206802 -0.0133242505 0.3969038 -0.11550337 -0.03679456
0.095603116 0.09782268 -0.08480656 0.25681576 0.24098085 -0.0119216675 0.25242147 -0.1684967
-0.02292151 0.45433566 -0.04695448 0.04089964 -0.10575271 -0.100436635 -0.14810568 0.17027387
0.266915 0.076228164 -0.05872883 0.13704616 -0.12845191 0.088432394 0.12315024 0.027275437
0.009968656 0.28626654 -0.34034073 0.20620993 0.11822347 0.13689454 -0.11752822 0.0038626008
0.046099264 0.07603564 -0.16594538 0.08967379 -0.27752823 0.2282449 -0.11504337 -0.3351348
-0.02569367 0.007007543 0.066822074 -0.05068386 0.25438815 -0.115313426 0.13446224 0.04106482
