src/AI/vision_model/LSTM_model/lstm_model_dog_epoch80_49.pt (torch, 865220 bytes, 10 tensors)

lstm.weight_ih_l0 f4 [512, 30]
0	0x3de7fc4f	0.11327421
1	0x3d94b282	0.0726061
2	0x3c92b1a2	0.017906968
3	0x3d878517	0.06617182
4	0x3df607ba	0.120131925
5	0x395c145e	0.00020988422
6	0x3cde3464	0.027124591
7	0x3d77a02f	0.060455497
8	0x3cbe657f	0.023241756
9	0x3c1c807f	0.00955212
10	0xba9754fe	-0.0011545715
11	0x3c0b2025	0.008491551
12	0x3da4613e	0.0802636
13	0x3cfc8081	0.030822994
14	0x3dbca619	0.09211368
15	0x3bcb1efa	0.006198761
16	0xb83dc221	-4.5241908e-05
17	0xbd64a2df	-0.05581939
18	0x3bdf3c5e	0.0068126163
19	0x3d3b0e4c	0.04566793
20	0x3dbb8bb2	0.09157504
21	0x3daa99c1	0.083301075
22	0x3b8fdf5b	0.0043906397
23	0xbcb0f5bb	-0.021601548
24	0x3db2df7f	0.08734035
25	0xbcbb724a	-0.022881646
26	0x3ca072a6	0.019585919
27	0x3dc1b4c7	0.09458309
28	0xbb87222c	-0.0041239467
29	0x3d2456e0	0.040121913
30	0x3db6e7a6	0.08930902
31	0xbb36667b	-0.002783208
32	0xbb9a204a	-0.004703556
33	0x3dd4921f	0.10379433
34	0x3b872523	0.0041243
35	0x3dd47326	0.10373525
36	0xbd28dec6	-0.04122808
37	0xbb934f08	-0.0044955052
38	0xbc657e2d	-0.014007133
39	0x3d15b6a8	0.036551148
40	0x3dc3f5c3	0.0956836
41	0x3dcc06f8	0.09962267
42	0xbc570eee	-0.013126118
43	0x3db6b178	0.08920568
44	0x3d40e594	0.047093943
45	0xbbb4bb22	-0.005515472
46	0x3d72e938	0.059304446
47	0xbcfc4f47	-0.030799521
48	0x3d610a88	0.054941684
49	0xbc8732da	-0.01650374
50	0x3d13f765	0.036124606
51	0x3cf009c5	0.029301533
52	0x3db40cde	0.08791517
53	0xbd3e9165	-0.046525378
54	0x3a25e2ba	0.00063280354
55	0x3dbb031d	0.09131453
56	0x3da83833	0.08213844
57	0x3bfb54da	0.007670027
58	0x3cecc5bf	0.028902886
59	0x3dc08a67	0.09401398
60	0xbd48f51d	-0.049061883
61	0xbd9dcb4e	-0.07704793
62	0xbd9f064c	-0.07764873
63	0xbd1f5dfc	-0.03890799
64	0x3d19e2a1	0.037569646
65	0xbcae4a38	-0.021275625
66	0x3bf6c372	0.007530623
67	0xbd210d40	-0.039319277
68	0xbd918efb	-0.071073495
69	0xbd195330	-0.03743285
70	0x3d198844	0.03748347
71	0x3d3ec798	0.046577066
72	0xbc291149	-0.0103190625
73	0xbdb2c714	-0.087293774
74	0x3d824c52	0.06362213
75	0xbc5d1e0c	-0.013495933
76	0xbd3f2c8e	-0.04667335
77	0x3d5b6ef8	0.053572625
78	0x3d5210d4	0.05128558
79	0x3c8ecade	0.017430719
80	0x3c8fc03a	0.017547715
81	0xbd6dddaa	-0.058072723
82	0x3b0dcac5	0.0021635753
83	0xbca9928e	-0.020699766
84	0x3cd24ed4	0.025672354
85	0x3cb4faf5	0.022092322
86	0x3cd92e58	0.026511356
87	0xbd8f47d4	-0.06996122
88	0xbd573d9a	-0.052548982
89	0xbc3e1441	-0.011601509
90	0xbd1063e8	-0.035251528
91	0x3cf186c1	0.029483201
92	0x3d84ca60	0.064839125
93	0xbcda9eae	-0.026686992
94	0x3d80ad3c	0.06283042
95	0xbc88bce7	-0.016691638
96	0x3cb8d400	0.022562027
97	0x3dc6d18d	0.097079374
98	0xbb61155d	-0.003434501
99	0xbda93c29	-0.08263428
100	0x3db6f4b2	0.08933391
101	0x3be59886	0.0070067076
102	0x3d55a5f2	0.05216021
103	0x3b6a30fc	0.0035734763
104	0xbcc01b6f	-0.023450581
105	0x3dcef05c	0.10104439
106	0x3dae0e10	0.08498776
107	0x3db29979	0.08720679
108	0x3d541555	0.051778156
109	0xbcc1ac7d	-0.02364182
110	0xbc8ea0cb	-0.017410656
111	0xbbce54f7	-0.0062967497
112	0xbcafa6d3	-0.021441853
113	0x3d57664c	0.052587792
114	0x3c7f2bd1	0.0155744115
115	0xbd249f45	-0.040190954
116	0xbd8c9964	-0.068651944
117	0x3d804332	0.062628165
118	0x3bf62e2d	0.007512829
119	0x3d467e5d	0.048460353
120	0xbd284617	-0.041082468
121	0xbd03fa7f	-0.032221314
122	0xbca8bd32	-0.020598028
123	0xb98ae5e5	-0.00026492696
124	0x3cbf7d4f	0.023375181
125	0x3cddf470	0.027094096
126	0x3da7d8c0	0.08195639
127	0x3de76820	0.11299157
128	0x3dc5c907	0.096574835
129	0x3dce40ac	0.10070929
130	0x3da8bbf7	0.082389764
131	0x3dac080c	0.08399972
132	0x3d6d67d3	0.057960343
133	0x3dd5c1b2	0.10437335
134	0x3d5bce72	0.05366368
135	0xbd014c0d	-0.03156667
136	0xbca9d39e	-0.02073079
137	0x3d93c011	0.07214368
138	0x3ae1af3f	0.0017218365
139	0x3d5e271f	0.054236528
140	0x3d867c68	0.06566697
141	0x3d86ff29	0.06591637
142	0xbd07a32f	-0.03311461
143	0x3d06d68e	0.03291946
144	0xbcda7f4f	-0.026672034
145	0xbce62729	-0.028094845
146	0x3e047f04	0.12939078
147	0xbc6a9975	-0.014318814
148	0xbbbe4f1e	-0.0058077713
149	0xbc3e8e5a	-0.011630619
150	0xbd6648ef	-0.0562219
151	0x3db97065	0.09054641
152	0xbcba4ddd	-0.022742206
153	0x3e0d6b65	0.13810499
154	0x3a8ff196	0.0010982032
155	0x3c007007	0.007839209
156	0x3de325d6	0.11091201
157	0x3d806fd1	0.06271327
158	0x3dcdaca2	0.10042693
159	0xbca4ce9f	-0.020118056
160	0x3d720550	0.059087098
161	0xbd8769a3	-0.066119455
162	0x3df7810c	0.120851606
163	0x3d4abfd5	0.04949935
164	0xbd7f99a7	-0.062402394
165	0xbcc2f1cf	-0.023796944
166	0x3de0de0b	0.10979851
167	0x3cf7844f	0.030214457
168	0x3ca645bb	0.020296922
169	0xbc19a320	-0.009377271
170	0x3d99f844	0.07518056
171	0xbcfdee26	-0.030997347
172	0xbc84ab95	-0.016195098
173	0x3c956d8b	0.01824071
174	0xbcde3cd6	-0.027128618
175	0x3d21b131	0.039475624
176	0x3da8b5a2	0.08237769
177	0x3c0d9d7b	0.008643503
178	0xbd6aa037	-0.0572817
179	0x3d4ad484	0.049519077
180	0x3c3995c6	0.011327213
181	0x3de3f2fd	0.11130331
182	0x3c3dd17e	0.011585591
183	0x3dfd78f1	0.12376583
184	0xbc2a3a67	-0.010389901
185	0x3e017849	0.12643541
186	0xbbe15f7b	-0.0068778372
187	0x3d1c31b4	0.038133338
188	0xbba95b19	-0.0051683304
189	0x3e0b77d6	0.13619933
190	0xbd821a88	-0.06352717
191	0x3dff3343	0.12460949
192	0xbd09b19d	-0.03361665
193	0x3cf36fb4	0.02971635
194	0x3d920860	0.07130504
195	0xbae0d397	-0.0017152902
196	0x3dc37321	0.095434435
197	0x3daee96f	0.08540618
198	0x3d937a76	0.07201092
199	0xbd562a68	-0.052286536
200	0x3c03e778	0.008050792
201	0xbd8d93ec	-0.069129795
202	0xbb8632f5	-0.00409543
203	0xbd86258d	-0.06550131
204	0x3d5c90d8	0.05384907
205	0xbc07280e	-0.008249296
206	0x3c46c34d	0.012131524
207	0xbc9e5a17	-0.019330068
208	0xb9658756	-0.00021889558
209	0xbe0bd3f0	-0.13655066
210	0xbc69203a	-0.014228875
211	0xbde214d3	-0.11039128
212	0xbb06c8dd	-0.0020566501
213	0xbdbba846	-0.09162955
214	0xbc93be59	-0.0180351
215	0xbdc17956	-0.09446971
216	0xbda96e03	-0.08272936
217	0xbdf3eb14	-0.11910072
218	0x3d45f141	0.04832578
219	0x3d113018	0.035446256
220	0xbde3092d	-0.110857345
221	0xbda9d940	-0.0829339
222	0xbd70348b	-0.05864386
223	0xbd6e6f87	-0.05821183
224	0x3d887be1	0.06664253
225	0xbce20789	-0.027591484
226	0xbe00f6c2	-0.1259413
227	0xbd6398f8	-0.055565804
228	0x3d062122	0.03274644
229	0xba5700dc	-0.0008201727
230	0x3c19933a	0.00937348
231	0x3d4d070c	0.05005555
232	0xbddcd487	-0.10782724
233	0xbde8ee4c	-0.113735765
234	0x3d8c551f	0.06852173
235	0x3d97c32b	0.07410272
236	0xbc01e354	-0.007927734
237	0x3d8de596	0.06928556
238	0xbd475e2f	-0.048673805
239	0xbcfab402	-0.030603413
240	0xbc2bacbe	-0.010478197
241	0xbd6d50ac	-0.057938263
242	0xbde2adaa	-0.1106828
243	0xbd5fe49d	-0.054661382
244	0xbc991a5b	-0.018689325
245	0x3ba02efa	0.0048884125
246	0x3d375815	0.044761736
247	0xbcb7f34b	-0.022454878
248	0x3d2b0e35	0.041761596
249	0xbc464a20	-0.012102634
250	0x3d769638	0.060201854
251	0x3926ab6e	0.00015894856
252	0x3d66df24	0.056365147
253	0x3dcc4a58	0.099751174
254	0x3a237c56	0.0006236484
255	0x3ce012dc	0.027352743

lstm.weight_hh_l0 f4 [512, 128]
0	0x3d23b835	0.039970595
1	0x3ddb0c4f	0.10695707
2	0x3c88d63f	0.016703723
3	0x3ca2a62d	0.01985463
4	0x3e05e984	0.1307736
5	0xbe089c53	-0.13340883
6	0x3de85b4b	0.11345538
7	0x3d1b19eb	0.037866514
8	0x3d713510	0.058888495
9	0xbe1c602c	-0.15271062
10	0xbc0aa155	-0.008461316
11	0x3c573b38	0.013136677
12	0x3dae01ad	0.084964134
13	0xbd7565f3	-0.05991168
14	0x3d39d042	0.045364626
15	0xbdbc96a9	-0.09208424
16	0x3d81469f	0.06312298
17	0x3da7a38d	0.08185492
18	0xbd08f78b	-0.0334392
19	0xbdc7d1bf	-0.09756803
20	0x3dbd8ae3	0.09255006
21	0xbd987c8f	-0.07445633
22	0x3d072031	0.032989684
23	0xba6d48d0	-0.00090516824
24	0xbd8b7928	-0.06810218
25	0x3d22aa75	0.03971334
26	0x3d13ed04	0.036114708
27	0xbd9e4e4b	-0.07729777
28	0x3da3ae79	0.079922624
29	0xbccef8cc	-0.02526512
30	0x3d8a9bda	0.067680076
31	0x3d743d53	0.059628796
32	0xbd1022a4	-0.035189286
33	0xbd6dd855	-0.05806764
34	0xbd8f1c2f	-0.069877975
35	0x3e055b88	0.13023198
36	0x3d809be3	0.06279733
37	0x3d279c78	0.040920705
38	0xbd08f1af	-0.033433612
39	0x3d7d5402	0.061847694
40	0x3d90f2fd	0.07077596
41	0x3dd86034	0.10565224
42	0x39e3c111	0.0004344066
43	0xbe30cd34	-0.17265779
44	0xbd0bb93b	-0.034112196
45	0xbdb17e70	-0.08666694
46	0xbd1df7c4	-0.038566366
47	0xbd4606d0	-0.04834634
48	0x3ca4f74d	0.020137453
49	0x3c9fe750	0.019519478
50	0xbd3bbceb	-0.045834463
51	0xbc1f6478	-0.009728543
52	0x3d5cf672	0.053945966
53	0x3d88a723	0.06672504
54	0x3cbc5bc3	0.022992974
55	0xbd18a3ab	-0.03726546
56	0x3d0e87ec	0.034797594
57	0xbdc46205	-0.09589008
58	0x3d5d45c1	0.0540216
59	0x3dbd9119	0.09256191
60	0x3d131920	0.035912633
61	0xbdcda68a	-0.100415304
62	0xbd982785	-0.07429413
63	0xbe0b3e44	-0.13597971
64	0x3c45caa0	0.012072235
65	0x3e05f958	0.13083398
66	0xbdeaf3c6	-0.11472277
67	0xbd9775bf	-0.07395505
68	0x3d86eb5b	0.06587859
69	0x3bd44274	0.0064776484
70	0x3d47426e	0.048647337
71	0x3db37fac	0.08764586
72	0x3d8f3bc4	0.06993821
73	0xbdfc4c29	-0.12319214
74	0xbd563a88	-0.052301913
75	0xbd41862b	-0.047247093
76	0xb95f02ca	-0.00021267976
77	0xbdbfc65f	-0.09364008
78	0x3d19a64e	0.037512116
79	0xbd2077d0	-0.039176762
80	0xbd4b1755	-0.049582798
81	0x3cc27d0b	0.023741266
82	0xbd05f916	-0.03270825
83	0xbca7b18e	-0.020470407
84	0x3c0433ca	0.008068988
85	0x3dbebc81	0.09313298
86	0x3e024ad4	0.12723857
87	0x3d5d7608	0.05406764
88	0x3db059f0	0.08610904
89	0x3e03af05	0.12859733
90	0x3c72e15d	0.014824239
91	0xbe1840ff	-0.14868544
92	0xbd198e48	-0.037489206
93	0x3d9eedea	0.07760222
94	0xbd496ba3	-0.049174916
95	0xbe092ff2	-0.13397196
96	0xbd4827f4	-0.048866227
97	0xbdbb7f4d	-0.0915514
98	0xbe153bb9	-0.14573564
99	0x3cdd6cb3	0.02702937
100	0xbd050fa7	-0.03248563
101	0xbdcb4495	-0.0992519
102	0x3d75717a	0.059922673
103	0x3da23903	0.0792103
104	0x3d9364da	0.0719697
105	0xbc36d59f	-0.01115933
106	0x3c56043f	0.013062536
107	0x3d570901	0.05249882
108	0xbb17a84f	-0.0023141091
109	0x3d068c75	0.032848794
110	0xbdb537e0	-0.08848548
111	0x3d709a2a	0.058740772
112	0xbdd1beeb	-0.10241493
113	0x3c4882e0	0.012238234
114	0x3ce8f7e6	0.02843852
115	0xbdb7421f	-0.089481585
116	0xbcf85a65	-0.030316541
117	0x3db32020	0.08746362
118	0x3d45c30e	0.04828172
119	0xbc0efef2	-0.008727776
120	0x3dc5e5b7	0.09662955
121	0xbdde9441	-0.10868121
122	0xbd0b67a1	-0.034034375
123	0xbd9d71ba	-0.07687707
124	0x3d92d39e	0.07169269
125	0x3d19044c	0.037357613
126	0xbd88fc94	-0.066888005
127	0x3b2319df	0.0024887247
128	0xbda80dad	-0.082057334
129	0xbc19e779	-0.009393566
130	0x3d082f89	0.033248458
131	0x3d00a4d9	0.03140721
132	0x3c5b0595	0.01336803
133	0xbc729e11	-0.014808194
134	0x3cd83d05	0.026396284
135	0x3d8a68e7	0.0675829
136	0xbdebd258	-0.11514729
137	0xbd050149	-0.03247193
138	0x3d9c7784	0.07639983
139	0x3bfcf1c3	0.00771925
140	0xbdad1441	-0.08451129
141	0xbd6c5710	-0.057700217
142	0xbd22654e	-0.039647393
143	0x3d5962d9	0.053072784
144	0x3bbcaa48	0.005757604
145	0x3acb04b6	0.0015489075
146	0x3cc303de	0.023805555
147	0xbd3dd4e1	-0.046345595
148	0x3dc4671d	0.0958998
149	0xbdec6da6	-0.11544351
150	0xbb1bd211	-0.0023776332
151	0x3ceb9475	0.028757313
152	0xbddb5089	-0.1070872
153	0x3ca4a3c8	0.020097628
154	0xbd28ce9f	-0.041212674
155	0xbd74c9fb	-0.059762936
156	0x3dad870b	0.08473023
157	0x3c42fdc5	0.011901324
158	0xbd2d1409	-0.042255435
159	0x3e173200	0.14765167
160	0xbc817d62	-0.015806857
161	0x37a1d5f5	1.9292327e-05
162	0x3e15f67a	0.14644805
163	0xbd4d5fa1	-0.050140027
164	0x3da86477	0.08222287
165	0x3dc17a5c	0.09447166
166	0xbcdb532d	-0.02677306
167	0xbde88678	-0.11353773
168	0xbd02922b	-0.031877678
169	0xbdb2f0cf	-0.08737337
170	0xbdad5980	-0.084643364
171	0xbd4fba38	-0.0507147
172	0x3dcdf949	0.10057313
173	0x3d0d2457	0.034458485
174	0xbd0890d3	-0.03334124
175	0xbdb106b9	-0.0864386
176	0x3d1a9baa	0.03774611
177	0x3d922c39	0.07137341
178	0xbd862c5a	-0.06551428
179	0xbcf74010	-0.030181915
180	0xbe01cad9	-0.12675036
181	0xbd9bf89a	-0.07615776
182	0x3d5cf6d2	0.053946324
183	0xbe228d7b	-0.15874283
184	0x3d3383a4	0.043826714
185	0xbd2a1bec	-0.041530535
186	0xbd6de563	-0.05808009
187	0x3c2d0a2e	0.010561509
188	0xbcacdfe9	-0.021102862
189	0xbd82e86d	-0.06391988
190	0xbd3a2075	-0.04544111
191	0xbde04f00	-0.10952568
192	0xbd852bb2	-0.06502475
193	0xbda0182b	-0.0781711
194	0xbddd4310	-0.10803807
195	0xbd32bc25	-0.04363646
196	0x3d0e7a4a	0.034784593
197	0xbe2fa405	-0.17152412
198	0x3d026375	0.03183313
199	0xbd6b7ee7	-0.05749407
200	0x3cb65fdf	0.022262512
201	0xbdb6730b	-0.089086615
202	0xbdcc25db	-0.09968158
203	0x3dfe3ded	0.12414155
204	0x3d79e32e	0.06100767
205	0x3dd371a1	0.10324407
206	0x3d3b0456	0.045658432
207	0xbdecbe84	-0.115597755
208	0x3c17da14	0.0092683025
209	0xbe093450	-0.13398862
210	0x3d896b95	0.06709973
211	0x3cc04de7	0.023474647
212	0xbd517d98	-0.051145166
213	0xbc902340	-0.017594934
214	0xbd028255	-0.031862576
215	0x3db3ce8d	0.08779631
216	0xbc2229d6	-0.00989767
217	0x3c593b2b	0.013258736
218	0x3cc32a29	0.023823814
219	0x3e1f1109	0.15533842
220	0xbd3d0a92	-0.04615266
221	0xbdf19670	-0.11796272
222	0x3de622ab	0.11237081
223	0x3db818db	0.08989116
224	0xbd3defa1	-0.046371106
225	0xbd35d269	-0.044390116
226	0x3be1f6ab	0.00689586
227	0xbdbbde03	-0.09173205
228	0x3debf27d	0.1152086
229	0x3c512a80	0.01276648
230	0x3db5ad5c	0.08870956
231	0x3da4e531	0.08051527
232	0x3d86d964	0.06584433
233	0xbdbaa64b	-0.09113749
234	0x3d4bf5b3	0.049794864
235	0x3e041a5b	0.12900679
236	0x3dd4839f	0.10376667
237	0xbd88c93f	-0.0667901
238	0x3bbebef3	0.0058211028
239	0x3d2c144f	0.042011555
240	0xba7de59b	-0.0009685398
241	0xbdff3740	-0.1246171
242	0x3dafe14f	0.08587896
243	0xbcfc923e	-0.030831452
244	0x3d18a526	0.037266873
245	0xbdc1fd6a	-0.09472163
246	0xbd99d383	-0.07511046
247	0xbbdf7656	-0.0068195267
248	0xbd696066	-0.0569767
249	0x3bfa2f57	0.007635038
250	0xbce097c0	-0.02741611
251	0xbd2d06ec	-0.04224293
252	0x3c254b3a	0.010088736
253	0x3d140595	0.036138136
254	0xbcbf35e4	-0.023341127
255	0xbd2a978a	-0.041648425

lstm.bias_ih_l0 f4 [512]
0	0xbd6c596b	-0.057702463
1	0x3e0581a3	0.13037734
2	0xbd5f5ea7	-0.054533627
3	0xbcfccefb	-0.030860415
4	0xbcb230d7	-0.021751804
5	0x3dbdd8b6	0.0926985
6	0xbc3ca405	-0.011513715
7	0xbd82fc07	-0.06395727
8	0x3e01983c	0.12655729
9	0xbc81ce20	-0.015845358
10	0x3d3ddce1	0.046353225
11	0x3b3cb413	0.0028793856
12	0xbd21f6d6	-0.03954204
13	0x3d3d8162	0.046265967
14	0xbda353f8	-0.07975
15	0x3d261395	0.04054602
16	0x3dab5dd7	0.08367508
17	0x3acf01c8	0.0015793378
18	0x3d56c3bb	0.052432757
19	0x3d6189e1	0.055063132
20	0xbd82ddc9	-0.063899584
21	0x3dfe924b	0.12430247
22	0xbca538c0	-0.020168662
23	0x3d3df23a	0.046373583
24	0xbd1b2ccd	-0.037884522
25	0xbdf6ada2	-0.120448366
26	0x3d9176b5	0.0710272
27	0xbd50c755	-0.050971348
28	0x3d9cda9f	0.07658886
29	0x3c2e48e8	0.010637499
30	0x3d76164c	0.060079858
31	0x3d9cfcbe	0.07665394
32	0x3db40478	0.08789915
33	0xbd2bf00a	-0.041976966
34	0xbcba79ea	-0.022763211
35	0xbd136811	-0.035987917
36	0xbdd44dbb	-0.103663884
37	0x3d15680d	0.036476184
38	0xbc390ef4	-0.011295069
39	0xbd3054aa	-0.043049492
40	0x3b52e5ef	0.0032180508
41	0xbccc8d28	-0.024969652
42	0xbdb31c40	-0.08745623
43	0x3caef790	0.021358281
44	0x3dc3c7a7	0.09559565
45	0xbcff0a5f	-0.031132875
46	0xbd7a54ec	-0.061116144
47	0xbd9a0b06	-0.07521634
48	0x3e08a57b	0.13344376
49	0x3c154b12	0.009112136
50	0xbe0a9f10	-0.1353724
51	0x3da08f2c	0.07839808
52	0x3e031e73	0.12804584
53	0xbdc35566	-0.09537773
54	0xbcb9aca2	-0.022665326
55	0x3dacfdcf	0.08446848
56	0x3d2d2998	0.042275995
57	0xbcb8873e	-0.022525426
58	0xbdfc9710	-0.123335004
59	0x3c32a172	0.010902749
60	0xbd67f534	-0.05663033
61	0x3cde0433	0.027101612
62	0xbcb63be2	-0.022245351
63	0x3c94c6b0	0.018161148
64	0xbd4b4dc9	-0.04963473
65	0x3cff893d	0.03119337
66	0x3d3185d1	0.043340508
67	0xbd07ed6c	-0.033185408
68	0x3cbf3ea2	0.023345295
69	0xbbdf3266	-0.006811428
70	0x3e0d72de	0.1381335
71	0xbd0d1c35	-0.03445073
72	0x3df2629c	0.118352145
73	0x3e2ce563	0.16884379
74	0x3cc76d60	0.024344146
75	0xbdb3d47f	-0.08780765
76	0x3cfc68a7	0.03081162
77	0x3dbea62c	0.093090385
78	0x3dbf299d	0.09334109
79	0x3d7181ad	0.05896156
80	0xbd8cf7e2	-0.068832174
81	0x3d4da286	0.050203823
82	0xbc7ff287	-0.015621788
83	0x3bbf0901	0.005829931
84	0x3cd5a319	0.026078748
85	0xbdc36440	-0.095406055
86	0xbdf562b5	-0.119817175
87	0x3d221e12	0.03957946
88	0x3da8b2e8	0.08237249
89	0xb9d1f01d	-0.00040042485
90	0xbddffa77	-0.10936444
91	0xbdcebc19	-0.100944705
92	0x3c782249	0.015144893
93	0xbcb09ac2	-0.02155817
94	0x3c967786	0.01836754
95	0x3e2cf42c	0.16890019
96	0xbd3ee22b	-0.04660241
97	0x3def19e8	0.11674863
98	0xbc23989c	-0.009985115
99	0xbd86e05a	-0.065857604
100	0xbd9b46e4	-0.07581881
101	0xbba63262	-0.005071924
102	0x3ca51b5f	0.020154653
103	0x3cc96841	0.024585845
104	0x3e15733a	0.14594737
105	0xbded9fc9	-0.11602742
106	0x3ddec321	0.10877062
107	0xbccd6e41	-0.025076987
108	0x3d9f0a0e	0.0776559
109	0x3dbc1a28	0.091846764
110	0x3db9b00f	0.09066784
111	0xbda810f3	-0.08206358
112	0x3dbb3b7f	0.09142207
113	0x3c52b8be	0.012861429
114	0x3d7c1075	0.061539132
115	0x3a12fcd1	0.00056071306
116	0xbd0638d3	-0.032769036
117	0xbd47d740	-0.048789263
118	0x3e120c68	0.14262545
119	0xbdcec3a4	-0.10095909
120	0xbdaa17f6	-0.083053514
121	0x3dc5f1d3	0.09665265
122	0xbd9bbdaf	-0.07604539
123	0x3d0e3701	0.034720425
124	0xbdc1b5c6	-0.09458499
125	0xbce2f50e	-0.027704742
126	0x3c99ca59	0.018773245
127	0xbd2c6bc1	-0.04209495
128	0xbc5637e3	-0.013074848
129	0xbc9445da	-0.018099714
130	0x3de9b21c	0.11410925
131	0x3d671b3c	0.056422457
132	0x3d2d361a	0.042287923
133	0xbbe413ef	-0.006960384
134	0x3c9fe442	0.019518021
135	0xbd354321	-0.044253472
136	0x3d9192a9	0.07108051
137	0xbcad64bb	-0.021166196
138	0x3cee5451	0.02909294
139	0xbddec81c	-0.108780116
140	0xbdee8af1	-0.11647595
141	0x3d122f88	0.03568986
142	0x3d34479a	0.044013597
143	0x3d99b3d5	0.07505003
144	0x3d58179c	0.05275689
145	0xbcc05b40	-0.023481011
146	0x3c89f68f	0.016841201
147	0x3dcabf59	0.09899778
148	0xbd9f28a1	-0.07771421
149	0x3cb79e76	0.022414427
150	0x3ca382e7	0.01995988
151	0xbb3015d2	-0.0026868475
152	0x3d3a4600	0.045476913
153	0xbd438829	-0.047737274
154	0x3d3854e1	0.04500282
155	0x3d424871	0.047432367
156	0x3e475ec2	0.19469741
157	0x3c183750	0.009290531
158	0xbc9a7454	-0.018854298
159	0xbca61764	-0.020274825
160	0x3dc6bfa2	0.0970452
161	0x3d949c1f	0.0725634
162	0x3d097bb0	0.033565223
163	0xbc716dd3	-0.014735657
164	0x3d851ba7	0.06499415
165	0xbd98ebba	-0.07466836
166	0x3cf2fade	0.029660638
167	0x3e2860c5	0.16443165
168	0x3cb99d68	0.022658065
169	0x3cbfb14d	0.023399973
170	0xbd34e7b1	-0.04416627
171	0x3dc298ee	0.09501825
172	0x3dfaa1ef	0.12237918
173	0x3d8fd941	0.0702386
174	0x3c99b6ad	0.018763864
175	0xbc524e6c	-0.01283608
176	0xbd68b9a9	-0.056817684
177	0xbc17b67c	-0.009259816
178	0xbd138f82	-0.03602553
179	0x3d9f932b	0.07791742
180	0xbdcde1d4	-0.10052839
181	0x3e0e3078	0.13885677
182	0x3c3a9bab	0.011389653
183	0xbdc8c780	-0.098036766
184	0xbdb170db	-0.086641036
185	0x3cef6132	0.029221151
186	0xbd187741	-0.037223104
187	0x3d45122e	0.04811304
188	0x3b16e3bc	0.0023023924
189	0x3ddd4f62	0.10806157
190	0xbcac352a	-0.021021444
191	0x3df67235	0.12033502
192	0xbd3d3591	-0.046193663
193	0xbc07333f	-0.008251964
194	0x3d448e30	0.047987163
195	0xbdab618a	-0.083682135
196	0xbc0665f6	-0.00820302
197	0x3d688883	0.056770813
198	0x3d3510a6	0.04420533
199	0x3d9aada4	0.075526506
200	0x3c877995	0.016537467
201	0x3e010498	0.12599409
202	0x3ca0abbf	0.019613145
203	0xbcd26e62	-0.0256874
204	0x3cdb5ab7	0.026776655
205	0xbd42528b	-0.047442
206	0x3cbbffbb	0.02294909
207	0x3bed4fc7	0.007242176
208	0x3cbcf208	0.023064628
209	0xbc2cf653	-0.010556775
210	0x3da3ccb1	0.07998026
211	0xbdc92427	-0.09821349
212	0xbc1e0f8e	-0.009647263
213	0xbdf7acd2	-0.1209351
214	0x3d2e6e79	0.042585824
215	0x3d8e0fa3	0.06936576
216	0xbd5d4700	-0.05402279
217	0x3c9cb9ea	0.01913162
218	0xbd5bc5f3	-0.053655576
219	0xbd231f0d	-0.039824534
220	0x3e08b0dc	0.13348716
221	0x3e02df53	0.12780504
222	0x3d6ab00b	0.057296794
223	0x3d3da875	0.04630323
224	0x3da86b7f	0.08223628
225	0x3d07e5f9	0.033178303
226	0x3c1301dc	0.008972611
227	0x3df601f6	0.12012093
228	0xbc9bb8a7	-0.019008948
229	0x3d852750	0.06501639
230	0xbd234fbb	-0.03987096
231	0xbe015806	-0.12631235
232	0x3c0d2412	0.008614557
233	0x3d9f6ad5	0.077840485
234	0x3e24b5ed	0.16085024
235	0x3d0cdf8f	0.03439289
236	0x3dc1820c	0.094486326
237	0x3cb49ff2	0.022048924
238	0xbca439a8	-0.020047024
239	0x3d9115a7	0.07084208
240	0x3da5de4c	0.080990404
241	0x3dd57a42	0.104237095
242	0x3dc10479	0.09424681
243	0xbd7b834f	-0.061404523
244	0x3d5ca1e6	0.053865336
245	0x3d7b0053	0.061279606
246	0x3d62ff4c	0.05541925
247	0x3c49bf67	0.0123137
248	0xbd0b01fb	-0.033937436
249	0x3da75ce3	0.081720136
250	0xbc899eb3	-0.016799306
251	0x3c87a869	0.016559796
252	0xbd447e04	-0.04797174
253	0xbd87e4a5	-0.06635407
254	0xbd3957ea	-0.045249857
255	0x3d042993	0.03226621

lstm.bias_hh_l0 f4 [512]
0	0xbd61a9ab	-0.05509345
1	0x3dc737fb	0.09727474
2	0xbcc8079d	-0.024417693
3	0x3da19268	0.07889253
4	0x3d78c52e	0.06073492
5	0x3bd5827f	0.0065158005
6	0xbcb04649	-0.02151789
7	0xbd456576	-0.048192464
8	0x3c9a80e5	0.01886029
9	0x3dbeabbe	0.09310101
10	0x3c34f64f	0.011045053
11	0xbe1286a0	-0.14309168
12	0xbd85d2ff	-0.06534385
13	0x3d79e0af	0.06100529
14	0x3c3d051f	0.0115368655
15	0x3dd67e10	0.10473263
16	0x3cf7c240	0.030243993
17	0x3c56bed1	0.013107018
18	0xbd96d538	-0.07364887
19	0x3d07f036	0.033188067
20	0xbdbf37a9	-0.09336788
21	0xbbacfc54	-0.0052791033
22	0x3d2ae4df	0.041722175
23	0xbc67464f	-0.014115884
24	0x3ca3ca9b	0.01999407
25	0xbceece20	-0.029151022
26	0x3da590dc	0.0808427
27	0xbdbc8ab8	-0.09206146
28	0xbc939160	-0.018013656
29	0x3dd99b5f	0.10625338
30	0x3cdf8577	0.02728532
31	0x3e2f0de0	0.17095137
32	0x3d54edaf	0.051984485
33	0x3b5e196d	0.0033889667
34	0xbb9d703a	-0.004804638
35	0xbcb8c82c	-0.022556387
36	0xbd6180bd	-0.055054415
37	0x3b89de08	0.0042073764
38	0xbd017da9	-0.03161398
39	0x3cf9cde9	0.030493693
40	0xbd2d722c	-0.04234521
41	0xbd76c862	-0.060249694
42	0xbd857fee	-0.06518541
43	0x3d813103	0.06308176
44	0x3df83756	0.121199295
45	0x3d0d02a0	0.03442633
46	0xbde450ce	-0.11148225
47	0x3d9c486f	0.07631003
48	0xbbfe2bb3	-0.007756674
49	0x3d274e04	0.040845886
50	0x3c97d4a7	0.018534018
51	0xbcd0918e	-0.02546003
52	0xbcb526b0	-0.022113174
53	0x3b265fe8	0.0025386754
54	0x3d179c2d	0.037014175
55	0x3d788c28	0.06068054
56	0x3dbbf0e6	0.09176807
57	0xbd557ceb	-0.052121084
58	0xbcb732fd	-0.02236318
59	0x3dd0feb8	0.10204834
60	0xbd58b4e2	-0.05290688
61	0x3dc353a3	0.09537437
62	0xba6cefe9	-0.0009038435
63	0x3d94a6d8	0.072583854
64	0x3c78985c	0.015173044
65	0x3c973741	0.018458964
66	0x3dca68bf	0.0988326
67	0x3d07245a	0.032993652
68	0xbb2c9de9	-0.002633924
69	0x3c140a69	0.009035685
70	0x3d487a22	0.0489446
71	0x3bbce410	0.005764492
72	0x3dadf032	0.08493079
73	0x3df4dd35	0.119562544
74	0x3d24ee30	0.040266216
75	0xbd28fa3c	-0.041254267
76	0xbbfae9cd	-0.0076572658
77	0xbd04214c	-0.032258317
78	0x3c0a3170	0.008434638
79	0xbd60485d	-0.05475651
80	0x3d4b44cb	0.049626153
81	0x3d848a88	0.06471735
82	0xbd5acf49	-0.05342034
83	0xbda6ac2d	-0.08138309
84	0x3d86051e	0.06543945
85	0xbdf49af6	-0.11943619
86	0x3b8437ea	0.004034986
87	0x3d011ba8	0.031520516
88	0x3d465deb	0.04842941
89	0x3d51c426	0.051212452
90	0xbd1f0164	-0.038819686
91	0xbde9ce12	-0.11416258
92	0x3d8dd7db	0.06925937
93	0xbd2ec5fb	-0.042669278
94	0x3d33a2f5	0.04385658
95	0x3e32bf25	0.17455728
96	0xbd9e008c	-0.07714948
97	0x3dff3c4e	0.12462674
98	0xbd6c2d92	-0.057660647
99	0x3c96db50	0.018415123
100	0xbd990d0f	-0.07473194
101	0x3d560f16	0.05226048
102	0xbc405f65	-0.011741494
103	0x3ba35d51	0.0049854894
104	0x3d4b600c	0.049652144
105	0x3d094c6a	0.03352014
106	0x3c1ee888	0.009698994
107	0xbdeeab67	-0.11653786
108	0xbd5d6270	-0.054048955
109	0x3d8267ef	0.0636748
110	0xbaf40424	-0.0018616957
111	0xbdba0ba9	-0.09084255
112	0x3d86f00b	0.06588753
113	0xbda7959a	-0.08182831
114	0x3c9f95fc	0.019480698
115	0x3ccac4d5	0.02475206
116	0x3c99a284	0.018754251
117	0xbc2cfd75	-0.010558476
118	0x3ded3d94	0.11584011
119	0x3d2880fc	0.041138634
120	0xbd3adaf2	-0.04561896
121	0x3d4439f6	0.04790684
122	0xbda767a9	-0.081740685
123	0xbda0aa59	-0.07844991
124	0xba8af955	-0.0010602871
125	0xbd73afa5	-0.05949368
126	0xbdfe899a	-0.12428589
127	0xbdc8d004	-0.09805301
128	0xbd08258e	-0.03323894
129	0xbc4eacad	-0.012614411
130	0x3df58dda	0.11989947
131	0x3c8a9dec	0.016921006
132	0x3ddec9f7	0.108783655
133	0x3d9363b1	0.07196749
134	0xbbd1f303	-0.006407143
135	0xbd990f99	-0.07473678
136	0x3d15d3c4	0.03657891
137	0x3d153b83	0.036433708
138	0x3d2f9c59	0.042873714
139	0xbd1ea962	-0.038735755
140	0xbd37667d	-0.044775475
141	0x3cf5a509	0.029985921
142	0xbc2f8cc1	-0.010714711
143	0x3dc709d3	0.09718671
144	0xbc901c93	-0.01759175
145	0xbd2f8677	-0.042852845
146	0x3db6eb77	0.0893163
147	0x3e1d10fd	0.15338512
148	0xbd25ab9b	-0.04044686
149	0x3e0909cf	0.13382648
150	0xbd1f7b28	-0.03893581
151	0x3de1a9f0	0.11018741
152	0x3da5e9ec	0.08101258
153	0xbda71fa1	-0.081603296
154	0x3cceb8f1	0.025234671
155	0xbd609080	-0.054825306
156	0x3e0e90a3	0.13922362
157	0xbd0f9050	-0.035049736
158	0x3d5bd30c	0.053668067
159	0x3dc8f960	0.098131895
160	0x3d9f98ec	0.077928394
161	0x3d81c440	0.0633626
162	0x3d68e64b	0.05686025
163	0xbdf7e0e1	-0.12103439
164	0xbd76ed21	-0.060284737
165	0x3d093426	0.033497
166	0xbdce3865	-0.1006935
167	0x3dc5be6c	0.09655461
168	0x3cc167d4	0.02360908
169	0x3d1c244a	0.038120545
170	0x3dbeeb30	0.09322202
171	0x3dbeb32d	0.09311519
172	0x3cc9b025	0.024620125
173	0x3d645adf	0.055750724
174	0x3d04ab8b	0.03239016
175	0x3d9ac7a0	0.07557607
176	0x3bbc980b	0.0057554296
177	0xbddeb00e	-0.108734235
178	0xbde9d821	-0.114181764
179	0xbcf05454	-0.029337086
180	0xbd5a515b	-0.053300243
181	0x3db76d7c	0.08956429
182	0x3d1b7a2e	0.037958317
183	0xbe1442f6	-0.14478669
184	0xbd204c36	-0.03913518
185	0x3d8bb0fe	0.06820868
186	0xbda29afc	-0.07939717
187	0x3dbb84e5	0.09156207
188	0x3dac0ae5	0.084005155
189	0x3e3abed6	0.1823686
190	0x3b2ac80a	0.0026059174
191	0x3e10dd2c	0.1414687
192	0xbd96c805	-0.073623694
193	0x3df2dae7	0.118581586
194	0x3d9909cf	0.07472574
195	0xbd85bf0a	-0.065305784
196	0x3ad66363	0.0016356524
197	0x3e07d06d	0.13263102
198	0x3e0a27aa	0.13491693
199	0xbd4eac96	-0.05045756
200	0x3d498052	0.04919464
201	0x3d34beb5	0.044127185
202	0x3cccb88e	0.024990346
203	0xbc159324	-0.009129319
204	0x3d3537df	0.044242736
205	0xbde417db	-0.111373626
206	0x3dbd634f	0.09247457
207	0xbdbb360d	-0.09141169
208	0x3ae77f44	0.001766183
209	0x3d862a8a	0.065510824
210	0x3d4889db	0.048959594
211	0x3d70cde2	0.058790095
212	0x3d9d8060	0.07690501
213	0xbd63273a	-0.05545733
214	0xbba07840	-0.0048971474
215	0x3d64c2d5	0.05584987
216	0x3dba55a8	0.09098369
217	0xbd94223b	-0.072330914
218	0xbe1ac32b	-0.15113513
219	0x3ca14c05	0.01968957
220	0x3d40b309	0.04704574
221	0x3dfaad8f	0.12240135
222	0x3da50559	0.080576606
223	0x3d381ff0	0.044952333
224	0x3b00816e	0.0019608396
225	0x3bec4d18	0.0072113387
226	0x3b9be21b	0.0047571785
227	0x3e096401	0.13417055
228	0x3d31c43e	0.04340004
229	0xbbc49d0f	-0.006000168
230	0xbdbddace	-0.09270249
231	0xbca38739	-0.01996194
232	0x3d97c705	0.07411007
233	0xbda70456	-0.08155124
234	0x3da4efd3	0.08053555
235	0xbc93d518	-0.018045947
236	0x3d8b3751	0.0679766
237	0x3d596cb3	0.05308218
238	0x3dd1f84c	0.10252437
239	0x3d56d66e	0.05245059
240	0x3e1a2fcc	0.15057296
241	0x3c30139b	0.010746862
242	0x3d0e2d6a	0.03471128
243	0x3d32e2cd	0.043673325
244	0xbd749302	-0.05971051
245	0x3dcf0a19	0.10109348
246	0xbbfd28d5	-0.007725815
247	0x3db1c9b2	0.086810485
248	0xbc44f6df	-0.012021749
249	0xbcc6cbdb	-0.024267128
250	0x3d367ab6	0.04455062
251	0x3d4b57d4	0.049644306
252	0x3c855728	0.01627691
253	0xbb9ec34a	-0.0048450576
254	0xbe157c28	-0.14598143
255	0xbb5e24ed	-0.0033896521

lstm.weight_ih_l1 f4 [512, 128]
0	0x3e46873a	0.19387522
1	0xbd4f8deb	-0.050672453
2	0x3c46d9f6	0.012136927
3	0x3d50374f	0.050833996
4	0xbc7a98ae	-0.015295191
5	0x3d870992	0.06593622
6	0xbda7d3ad	-0.08194671
7	0x3d0d0211	0.0344258
8	0x3d986e0c	0.07442865
9	0xbe17d66c	-0.14827889
10	0x3d59a35f	0.05313432
11	0xbd194eda	-0.037428714
12	0x3dc34fb9	0.0953669
13	0x3dc5adee	0.09652315
14	0xbcd0d4bc	-0.025492065
15	0x3b5ae261	0.0033399092
16	0xbdfcb802	-0.12339784
17	0xbbe5fe76	-0.0070188595
18	0xbd140497	-0.03613719
19	0x3de2829a	0.110600665
20	0x3d8d4ba6	0.068991944
21	0x3d84baee	0.064809665
22	0x3d1aac46	0.03776195
23	0xbd2edee2	-0.042693026
24	0x3d17a2f1	0.037020627
25	0x3d529b64	0.051417723
26	0xbcacc9fe	-0.021092411
27	0xbd8f287c	-0.06990144
28	0x3c08b22d	0.008343262
29	0xbd58b5b0	-0.052907646
30	0x3cf7e8ca	0.03026237
31	0xbd3b456a	-0.045720495
32	0x3b212022	0.0024585803
33	0x3c922db0	0.017844051
34	0xbbc1bc93	-0.0059123724
35	0x3dcf3b0a	0.10118683
36	0xbd470112	-0.048585005
37	0xbd14e3eb	-0.036350172
38	0xbde0ba17	-0.10972994
39	0xbd85e8ca	-0.065385416
40	0xbdd522b0	-0.10407007
41	0xbdc267c4	-0.09492448
42	0xbc0275fd	-0.007962701
43	0xbe12519c	-0.14288944
44	0x3d6d6cc8	0.05796507
45	0xba2d96fd	-0.0006621925
46	0x3cb1b53b	0.021692863
47	0x3c85ac55	0.016317526
48	0x3d043a54	0.03228219
49	0xbc0bc8dd	-0.008531776
50	0x3d8b5a9a	0.0680439
51	0x3cd74d92	0.026282106
52	0xbd723199	-0.05912933
53	0x3d583001	0.052780155
54	0x3dcd72ad	0.10031638
55	0x3d12813a	0.03576777
56	0x3cc5ecea	0.024160821
57	0xbc8b972e	-0.017039862
58	0xbd28dacc	-0.041224286
59	0x3e0195ab	0.1265475
60	0x3dfa7970	0.122301936
61	0xbd52b9de	-0.051446788
62	0x3c942292	0.01808289
63	0x3d33d4e4	0.0439042
64	0xbc8c36c7	-0.017115964
65	0xbb9a4985	-0.0047084712
66	0xbcc771a0	-0.024346173
67	0xbd4517d2	-0.04811842
68	0x3c97fc6c	0.018552981
69	0xbcdafa79	-0.026730763
70	0xbd0c2029	-0.034210358
71	0xb9d47d52	-0.00040529162
72	0xbe375030	-0.17901683
73	0x3e150244	0.14551646
74	0x3d5c956f	0.05385345
75	0xbde3445a	-0.110970214
76	0xbd9fa95f	-0.07795977
77	0x3d5abd54	0.053403214
78	0x3d56880e	0.052375846
79	0xbd83137e	-0.06400202
80	0xbd0e70d1	-0.03477556
81	0x3d943aa2	0.07237746
82	0x3dadcd46	0.084864184
83	0xbdb224ab	-0.086984
84	0x39bd3ea9	0.00036095575
85	0x3c423cea	0.011855343
86	0x3dac6c81	0.08419133
87	0x3d170340	0.036868334
88	0x3c7b2dcb	0.015330742
89	0xbd08e012	-0.033416815
90	0xbdb98051	-0.090576775
91	0x3d46865f	0.04846799
92	0x3d0db254	0.034593895
93	0xbc82b05f	-0.01595324
94	0xbb8ee074	-0.004360253
95	0x3ce9fdaf	0.028563349
96	0x3df78eac	0.120877594
97	0x3d3b2126	0.04568591
98	0x3cd577b1	0.02605805
99	0x3d80255a	0.06257124
100	0xbe32e3f2	-0.17469767
101	0x3da0961d	0.07841132
102	0x3c0cff9e	0.008605866
103	0xbdc655dc	-0.09684345
104	0xbda87998	-0.08226317
105	0xbb42d229	-0.0029727316
106	0xbcdd9e15	-0.027052918
107	0x3cc140a0	0.023590386
108	0x3d92f6de	0.071759924
109	0x3ca2bd88	0.019865766
110	0xbd8b5e50	-0.06805098
111	0x3d3f6965	0.04673137
112	0x3e08c1c9	0.13355173
113	0x3de01392	0.10941233
114	0xbc80b8fc	-0.015713207
115	0x3d17ef3f	0.037093397
116	0x3d99eeff	0.07516288
117	0xbcff9fe5	-0.031204173
118	0x3dc415d5	0.09574477
119	0xbe0bb250	-0.1364224
120	0x3d363bf1	0.04449076
121	0x3db4db78	0.08830923
122	0x3c9154fa	0.017740715
123	0x3e64e939	0.22354592
124	0xbd85e3e2	-0.06537606
125	0x3b911678	0.0044277273
126	0x3d0482fb	0.032351475
127	0xbdc954c5	-0.09830622
128	0xbe6daf51	-0.23211409
129	0x3d107019	0.035263155
130	0x3d80fd04	0.06298259
131	0x3dd1fb67	0.10253029
132	0xbce1e848	-0.02757658
133	0xbb0f2b61	-0.0021845924
134	0xbeab112b	-0.33411536
135	0xbdf6a501	-0.12043191
136	0xbd9dcd73	-0.07705202
137	0x3cb9d075	0.022682408
138	0x3dd3b295	0.10336796
139	0xbd9fdb47	-0.07805496
140	0xbdd4da7b	-0.10393234
141	0x3d1d498c	0.038400218
142	0x3d2fa7e1	0.04288471
143	0xbda35b82	-0.07976438
144	0x3d1b7632	0.037954517
145	0xbd88e38e	-0.066840276
146	0xbc0028e8	-0.007822253
147	0x3c5539a8	0.013014235
148	0xbe09d35d	-0.13459535
149	0xbd52adcc	-0.051435277
150	0xbc574184	-0.013138179
151	0xbc9a5ac3	-0.018842107
152	0xbd8958a2	-0.067063585
153	0xbe57bec2	-0.21068862
154	0x3b559e57	0.0032595599
155	0x3d610750	0.054938614
156	0xbd7d6543	-0.06186415
157	0x3ddaf55c	0.1069133
158	0xbe163b6d	-0.14671107
159	0xbd573c90	-0.05254799
160	0xbe742741	-0.23843099
161	0xbd0b8b4b	-0.034068387
162	0xbe0ba251	-0.13636138
163	0xbe1fffe9	-0.15624966
164	0x3d9778c1	0.07396079
165	0xbd969d1a	-0.073541835
166	0x3dbd9aeb	0.09258064
167	0x3da6bbac	0.08141264
168	0x3d691abf	0.056910273
169	0xbccee547	-0.025255812
170	0xbcad9cdc	-0.02119296
171	0x3da2f593	0.07956996
172	0x3cc6992b	0.024242958
173	0xbda94e8b	-0.08266934
174	0x3cbdc7da	0.023166586
175	0xbcd12f73	-0.02553532
176	0xbd9e7362	-0.07736851
177	0xbe12c735	-0.14333804
178	0x3bc29cb0	0.0059390888
179	0x3d2b6815	0.041847307
180	0x3e079bb7	0.13242994
181	0xbd56fa0e	-0.052484564
182	0x3df062ea	0.11737616
183	0xbde1b751	-0.11021293
184	0xbd85776c	-0.065169185
185	0xbd85c48f	-0.06531631
186	0x3c4e0c8a	0.012576232
187	0x3e11099f	0.14163826
188	0x3d82365f	0.06358027
189	0xbdf76159	-0.120791145
190	0x3ddf70a1	0.10910154
191	0x3b853f39	0.0040663746
192	0xbcb0890e	-0.021549728
193	0xbdd631ac	-0.10458693
194	0x3e0f44c2	0.13991073
195	0xbd8217c7	-0.063521914
196	0x3d8f614b	0.07000979
197	0x3da96f90	0.08273232
198	0xbcc96604	-0.024584778
199	0x3d1db27a	0.038500287
200	0x3d3a315e	0.045457236
201	0x3d8ec35b	0.06970855
202	0x3dd28eb8	0.10281128
203	0xbc6b6ec5	-0.014369671
204	0xbe6bbe37	-0.2302178
205	0x3d2f82d4	0.042849377
206	0xbdbf5e07	-0.09344106
207	0xbb9f9e7f	-0.004871189
208	0xbcf178f5	-0.029476622
209	0x3c9dcbd2	0.019262228
210	0xbd572763	-0.052527796
211	0xbd664403	-0.056217205
212	0x3c2c927a	0.01053297
213	0x3c9f6bb5	0.019460538
214	0x3c6eced8	0.014575683
215	0xbdbd26c6	-0.09235911
216	0xbd189326	-0.037249707
217	0x3d4956ae	0.04915493
218	0xbdc74598	-0.09730071
219	0xbd9d8bc6	-0.07692675
220	0x3d795475	0.06087156
221	0x3db993c1	0.09061385
222	0x3ca7e616	0.020495456
223	0x3e38122c	0.17975682
224	0x3e62c9b7	0.2214726
225	0x3c51b96f	0.0128005585
226	0x3e4e65ec	0.20156068
227	0xbcbfc89a	-0.023411084
228	0xbdb62068	-0.088929
229	0xbda4516d	-0.08023343
230	0x3cf032c8	0.02932109
231	0x3afad43c	0.0019136737
232	0xbd401ac0	-0.04690051
233	0xbd609a08	-0.054834396
234	0x3ad0ff71	0.0015945268
235	0x3c8ab0cc	0.016930006
236	0x3c34678f	0.011011018
237	0x3de61d94	0.1123611
238	0x3c5a9576	0.013341298
239	0xbdbfa778	-0.09358114
240	0xbe3b2fbf	-0.18279932
241	0x3df55202	0.119785324
242	0xbcb6c283	-0.022309547
243	0x3e20e5e9	0.15712704
244	0x3c09f2fb	0.008419747
245	0x3a532c5a	0.000805562
246	0x3c7adbeb	0.015311222
247	0xbd8f0e65	-0.069851674
248	0x3d5e1a02	0.05422402
249	0x3b1c1b24	0.0023819888
250	0xbd7b948a	-0.061420955
251	0xbe1547ea	-0.14578214
252	0x3d135098	0.035965532
253	0x3cd2696d	0.025685037
254	0x3d90d8a6	0.070725724
255	0x3cb675fe	0.02227306

lstm.weight_hh_l1 f4 [512, 128]
0	0x3e385634	0.18001634
1	0x3dd7c08b	0.105347715
2	0x3d520b1a	0.05128012
3	0xbd84a732	-0.064772025
4	0x3d808f31	0.062773116
5	0x3c311ae7	0.010809637
6	0x3ce325fb	0.027728071
7	0x3c3ca5f2	0.011514174
8	0x3b2c0d43	0.0026253022
9	0xbcf66b0d	-0.030080343
10	0xbe0e26d8	-0.13882005
11	0x3d00c413	0.03143699
12	0x3c862dd5	0.016379276
13	0xbde93797	-0.11387556
14	0xbcd1057c	-0.02551531
15	0x3dd93156	0.10605113
16	0x3dd70664	0.10499266
17	0x3dd4424b	0.10364207
18	0x3d96704d	0.073456384
19	0xbd24f23b	-0.04027007
20	0x3e0194ac	0.1265437
21	0xbd1aa474	-0.03775449
22	0x3e080cd1	0.13286139
23	0xbd9c0625	-0.076183595
24	0x3da4134b	0.08011492
25	0xbd9ee433	-0.07758369
26	0x3d3d1fb6	0.04617282
27	0x3c7c1caa	0.015387693
28	0xbbac40fb	-0.0052567697
29	0xbc4590aa	-0.012058416
30	0x3dae4311	0.08508886
31	0xbd844f44	-0.06460431
32	0x3c2ec729	0.010667601
33	0x3b611e7a	0.003435044
34	0x3c030990	0.007997885
35	0x3b4d554e	0.0031331363
36	0xbc1f9586	-0.009740239
37	0x3cb4e3e2	0.02208132
38	0xbbd8f419	-0.0066208956
39	0x3e386521	0.18007328
40	0x3cb262a7	0.021775557
41	0x3c02349a	0.0079471115
42	0x3d18cbe2	0.037303813
43	0xbde3778f	-0.11106788
44	0x3d75c0c2	0.05999828
45	0xbda78d95	-0.081813015
46	0xbd12bdef	-0.035825666
47	0xbc271293	-0.0101972995
48	0x3d2c9acb	0.04213981
49	0xbc424e37	-0.011859468
50	0xbd295da7	-0.04134908
51	0x3dc7a4ee	0.09748255
52	0x3be3843d	0.0069432543
53	0x3de5f578	0.1122846
54	0xbdf6c194	-0.12048641
55	0x3dba8b3c	0.09108588
56	0xbdb21306	-0.08695035
57	0xbd2ea8b2	-0.04264135
58	0x3d2f008f	0.042725142
59	0x3d2fb8d6	0.042900883
60	0xbd8a7d3e	-0.06762169
61	0x3e0a72cc	0.13520354
62	0x3c99f1e6	0.018792104
63	0x3d3152c3	0.04329182
64	0xbdb19dc2	-0.08672668
65	0xbda0265b	-0.07819816
66	0x3df48508	0.11939436
67	0xbdb54c80	-0.08852482
68	0xb988efc9	-0.00026118595
69	0x3d6bd25f	0.057573672
70	0x3b861b90	0.004092641
71	0x3d961815	0.07328812
72	0xbcacc0b3	-0.02108798
73	0xbdbdae06	-0.09261708
74	0x3dc87bab	0.09789213
75	0x3d4b09f6	0.049570046
76	0x3db4ba07	0.088245444
77	0x3e129879	0.14315976
78	0xbd34b683	-0.04411937
79	0xbdff3e06	-0.12463002
80	0xba8dd7bc	-0.001082174
81	0x3dcb5439	0.099281736
82	0xbce1143a	-0.027475465
83	0x3e34cc69	0.17656101
84	0x3cdc067b	0.026858559
85	0xbc9cf75a	-0.019160915
86	0xbcf04599	-0.029330062
87	0xbc3609da	-0.011110747
88	0xbd8dc024	-0.069214135
89	0xbd9fb91f	-0.07798981
90	0x3d8554bd	0.06510303
91	0x3dd4050d	0.10352526
92	0xbbd22bf3	-0.0064139306
93	0xbd22dcb0	-0.039761245
94	0x3d441ddb	0.047880035
95	0xbc333436	-0.010937741
96	0x3d38a44d	0.045078564
97	0x3d32b910	0.04363352
98	0x3d2d04c2	0.042240866
99	0xbcc25b16	-0.023725074
100	0x3d745cd0	0.059658825
101	0xbd992d5d	-0.074793555
102	0xbd30e4e1	-0.043187026
103	0xbdf93303	-0.12167933
104	0xbdbe3352	-0.09287132
105	0xbde874c0	-0.11350393
106	0xbc6d566e	-0.0144859385
107	0x3ceb6002	0.028732304
108	0x3db08b6e	0.08620344
109	0xbd3e1a70	-0.04641193
110	0xbc9c9b53	-0.019117033
111	0xbcfcda8a	-0.030865926
112	0x3db139da	0.086536124
113	0xbe082ef3	-0.1329916
114	0xbb248ace	-0.0025107148
115	0xbcee1a37	-0.029065235
116	0xbd1fb145	-0.038987417
117	0x3d053c52	0.03252823
118	0x3d726761	0.05918062
119	0xbd183bb5	-0.037166316
120	0xbdab9b4d	-0.08379231
121	0xbdb98dda	-0.09060259
122	0x3c934bb5	0.017980436
123	0xbc82d91f	-0.015972672
124	0xbd87b2ea	-0.06625922
125	0x3dcce0d6	0.100038216
126	0x3d2cc8cc	0.042183682
127	0xbd82eaa3	-0.0639241
128	0xbd8cf7ae	-0.06883179
129	0x3c9a36ee	0.01882502
130	0x3d829cf4	0.06377593
131	0xbda5a886	-0.08088784
132	0xbdb5e1ed	-0.088809825
133	0xba21c752	-0.00061713636
134	0x3d77e2b4	0.060518935
135	0xbc94a810	-0.018146545
136	0x3da13d18	0.07872981
137	0x3d8265a5	0.063670434
138	0xbe082217	-0.13294254
139	0x3d039070	0.03212017
140	0xbc93077a	-0.017947901
141	0xbd899032	-0.06716956
142	0x3c106775	0.008813729
143	0xbcf5763e	-0.029963609
144	0x3db12bb5	0.086509146
145	0x3d7947ee	0.060859613
146	0xbcac25ae	-0.02101406
147	0x3d51b6c9	0.051199708
148	0x3d88cfc7	0.066802554
149	0x3cd18611	0.025576623
150	0xbcdbfe50	-0.026854664
151	0x3d9dad27	0.07699042
152	0xbceaf5df	-0.028681694
153	0x3cd6d289	0.026223438
154	0xbdb3a7de	-0.087722525
155	0x38b7097f	8.727889e-05
156	0x3c8d3d2e	0.017241087
157	0xbb84085b	-0.0040293164
158	0x3dc41ecd	0.09576187
159	0xbb9fbfd2	-0.0048751617
160	0x3c5cfbd1	0.013487772
161	0x3de0fa7f	0.10985278
162	0x3d9fc092	0.07800402
163	0xbc645b3b	-0.013937767
164	0x3cb89325	0.022531101
165	0x3d798b85	0.06092407
166	0x3d1c350c	0.038136527
167	0x3d0bece2	0.034161456
168	0xbd14fdd9	-0.0363749
169	0xbd17df12	-0.03707797
170	0xbc733c9f	-0.014845996
171	0x3d21020d	0.039308596
172	0x3ceaec28	0.028677061
173	0x3bdbe653	0.0067108064
174	0x3caaf225	0.020867417
175	0x3d16aa98	0.036783785
176	0x3c9b380d	0.018947626
177	0xbe50b548	-0.20381653
178	0xbd9149df	-0.07094168
179	0xbdaf3100	-0.08554268
180	0x3ca5fff4	0.02026365
181	0x3d0d62f0	0.034518182
182	0xbd678144	-0.05651976
183	0xbbf54f40	-0.007486254
184	0x3d40690c	0.04697518
185	0xbddfc1a7	-0.10925608
186	0x3cb1b8f5	0.02169464
187	0xbe379e2e	-0.17931435
188	0x3d8ff1ad	0.07028518
189	0x3b09260f	0.0020927226
190	0xbc2f4ca4	-0.010699425
191	0x3ce463d3	0.027879631
192	0x3b0f4c1b	0.002186543
193	0xbddc74c3	-0.10764458
194	0xbd87cbd0	-0.06630671
195	0xbc31397b	-0.010816927
196	0x39a3b676	0.00031225727
197	0xbdff0ad3	-0.124532364
198	0xba87ee42	-0.0010370689
199	0x3dabfe28	0.08398086
200	0xbc929571	-0.017893525
201	0x3d6320e0	0.055451274
202	0x3ba5d293	0.005060503
203	0xbe03c5c5	-0.12868412
204	0x3d49703c	0.0491793
205	0xbc691b98	-0.01422777
206	0xbd046087	-0.03231862
207	0x3dab8a8f	0.08376037
208	0xbd8ee9c0	-0.06978178
209	0xbd850eff	-0.06497001
210	0x3d8e41ca	0.06946142
211	0x3e40df7a	0.1883525
212	0xbda61b61	-0.08110691
213	0xbda07811	-0.07835401
214	0xbd965b09	-0.07341582
215	0x3e1de509	0.15419401
216	0xbc24cde4	-0.010058854
217	0x3d3a283d	0.04544853
218	0xbd3c11ae	-0.0459153
219	0x3d31af0f	0.04337984
220	0xbd31d873	-0.043419313
221	0xbdf098fd	-0.1174793
222	0x3b959c2f	0.0045657377
223	0x3c9e8881	0.0193522
224	0x3d5d737d	0.054065216
225	0xbd2f1d3d	-0.042752493
226	0xbcc319be	-0.023815986
227	0x3d36963d	0.044576872
228	0x3d5b9dec	0.053617403
229	0x3c37952a	0.011204997
230	0x3d03b750	0.032157242
231	0x3c972bc6	0.01845349
232	0xbd38357f	-0.044972893
233	0xbca8a514	-0.020586528
234	0xbbc19493	-0.005907604
235	0xbba07176	-0.004896338
236	0xbd2672f0	-0.040636957
237	0x3d49a670	0.049230993
238	0x3dd5c7ea	0.10438521
239	0x3c832efe	0.016013619
240	0xbcb55714	-0.022136249
241	0xbe034e0c	-0.12822741
242	0x3e2758e2	0.163425
243	0xbbdf890d	-0.0068217576
244	0xbcc5e1f3	-0.024155593
245	0xbd87a47b	-0.06623169
246	0x3da7b0f6	0.081880495
247	0xba16a7b0	-0.0005747033
248	0x3c2534a5	0.010083352
249	0xbdbf7870	-0.093491435
250	0xbb9d51ae	-0.0048009967
251	0xbe3a5086	-0.1819478
252	0x3db7a3da	0.08966799
253	0x3bcef8da	0.0063162865
254	0x3ca4f3b2	0.020135734
255	0x3da29a18	0.07939547

lstm.bias_ih_l1 f4 [512]
0	0xbd501b8f	-0.050807532
1	0xbcf6da58	-0.030133411
2	0xbe17ba0f	-0.1481707
3	0xbd9b225b	-0.07574912
4	0xbd62ca65	-0.0553688
5	0x3e089d88	0.13341343
6	0xbdcc0a6b	-0.099629246
7	0x3cf4bae5	0.029874275
8	0x3d2ec927	0.042672303
9	0x3d90fc3d	0.07079361
10	0xbd4c223b	-0.049837332
11	0xbdd148a0	-0.1021893
12	0xbd8b49fa	-0.06801219
13	0x3d77782b	0.060417335
14	0x3dacbee6	0.084348485
15	0xbd1d45e5	-0.038396735
16	0xbd2f239a	-0.04275856
17	0xbbc79f93	-0.006092021
18	0x3a86c4ee	0.0010282078
19	0xbdc50ec1	-0.09621955
20	0xbda58f85	-0.08084015
21	0x3cbd686b	0.02312108
22	0xbd2f072a	-0.04273144
23	0xbac43977	-0.0014970739
24	0x3d7dbc7c	0.06194733
25	0x3b913afa	0.0044320794
26	0xbd49908e	-0.049210124
27	0x3c9c8a9e	0.019109067
28	0x3d38a742	0.045081384
29	0x3d89d45e	0.06729959
30	0xbbcab4d7	-0.0061861086
31	0xbd452537	-0.048131194
32	0xbe01dd15	-0.12681992
33	0xbca4ff56	-0.020141285
34	0xbcaa123b	-0.020760646
35	0x3b82b4f8	0.0039888583
36	0xbd852a98	-0.06502265
37	0xbe092417	-0.13392673
38	0x3d24b93e	0.040215723
39	0x3d5a8aaf	0.053354915
40	0xbcc14ef7	-0.023597224
41	0xbdeedbdf	-0.11663031
42	0xbcaa32ce	-0.020776179
43	0xbc049b1a	-0.00809362
44	0xbd8183c7	-0.06323963
45	0x3c939b52	0.018018398
46	0xbd8ffea8	-0.07030994
47	0x3bb4ef6e	0.0055217063
48	0x3cf990af	0.030464498
49	0xbe13ca6f	-0.14432691
50	0x3d8c5756	0.068525955
51	0xbccf0659	-0.025271581
52	0x3bbc90e6	0.005754578
53	0xbde63b54	-0.11241785
54	0xbde4f1d5	-0.11178938
55	0xbc7a025b	-0.015259351
56	0x3d59d11d	0.05317794
57	0x3c1d518b	0.009601961
58	0xbd4db30b	-0.050219577
59	0x3d4f09c5	0.050546426
60	0xbdab939b	-0.08377763
61	0x3d1c1d19	0.038113687
62	0xbd4a8cd0	-0.049450696
63	0xbe12fc93	-0.14354162
64	0xbdac95a4	-0.08426979
65	0x3aa7d809	0.0012805472
66	0xbd5e6b81	-0.054301742
67	0xbda6a19f	-0.081362955
68	0x3d5ef112	0.05442912
69	0x3c4ca42a	0.012490312
70	0xbde80ef1	-0.11330975
71	0x3d7c9c76	0.06167265
72	0xba9fe857	-0.001219998
73	0x3de49411	0.11161054
74	0xbdc9699a	-0.09834595
75	0x3db6d8ac	0.08928046
76	0xbdcfa856	-0.101395294
77	0xbd5d8ad9	-0.054087494
78	0x3d5ec36a	0.05438558
79	0x3d525231	0.051347915
80	0x3d345f59	0.044036243
81	0xbd16cb38	-0.0368149
82	0xbda0ddd7	-0.078548126
83	0xbc24bba5	-0.010054504
84	0x3d13c4b0	0.036076248
85	0xbc9c8148	-0.019104615
86	0xbc7c7596	-0.015408894
87	0xbdce127e	-0.10062121
88	0xbd2f63fb	-0.04281996
89	0xbdb47f1b	-0.08813306
90	0x3d4bc472	0.04974789
91	0xbd20ff6c	-0.03930609
92	0xbdfb68de	-0.12275861
93	0xbcda2d71	-0.026632996
94	0xbd8fbf1e	-0.070188746
95	0xbd9b2eec	-0.07577309
96	0xbe0950bc	-0.13409704
97	0xbd089526	-0.033345364
98	0x3d7e82cf	0.062136468
99	0x3d843e1b	0.06457158
100	0xbd089692	-0.03334672
101	0xbdc99729	-0.09843285
102	0x3db17a02	0.08665849
103	0xbd8b9d68	-0.06817132
104	0x3c54e8d8	0.012994967
105	0xbe073be3	-0.13206439
106	0xbc399679	-0.011327379
107	0xbcc01424	-0.023447104
108	0x3d782c25	0.060588975
109	0x3daf4c0f	0.08559429
110	0xbd35a277	-0.04434439
111	0x3c77f207	0.015133387
112	0xbd436853	-0.047706913
113	0xbd9d714a	-0.07687624
114	0xbdc733b7	-0.09726661
115	0xbdb2e7f2	-0.08735646
116	0x3d604ed8	0.05476269
117	0xbda4c6a0	-0.08045697
118	0x3c947463	0.018121904
119	0x3dc60d69	0.096705265
120	0x3d4933eb	0.04912178
121	0xbd1b2edc	-0.037886485
122	0xbdd65424	-0.10465267
123	0xbdf8914f	-0.121370904
124	0xbc9ad4bd	-0.01890027
125	0xbd829b13	-0.06377234
126	0xbdf5662e	-0.1198238
127	0x3d84fd5b	0.06493636
128	0x3d161d97	0.036649313
129	0x3d189bb1	0.037257854
130	0xbd597062	-0.053085692
131	0x3cb4225d	0.021989042
132	0xbcba5659	-0.022746252
133	0xbc8ef928	-0.017452791
134	0x3d8ec6e8	0.06971532
135	0xbd5ce8a6	-0.05393281
136	0x3d93762e	0.07200275
137	0x3d844201	0.06457902
138	0x3e37522e	0.17902443
139	0xbbf7aaa4	-0.0075581837
140	0xbe0a00b4	-0.1347683
141	0xbbaaffc4	-0.005218478
142	0x3c6f47c8	0.014604516
143	0xbcfe1ea5	-0.031020472
144	0x3bbb4c4a	0.0057158815
145	0x3c210568	0.009827949
146	0xbd9b1216	-0.07571809
147	0x3d02d548	0.031941682
148	0x3d4ee399	0.050510023
149	0xbdca7fa0	-0.09887624
150	0x3d21537e	0.039386265
151	0x3c31fe5f	0.010863869
152	0x3dc290d8	0.09500283
153	0x3cf082ed	0.029359305
154	0x3da23a48	0.079212725
155	0xbd3cbec7	-0.046080377
156	0x3db405cc	0.08790168
157	0xbd738016	-0.059448324
158	0x3c54a823	0.01297954
159	0xbd5363d8	-0.05160889
160	0x3d9c3ec7	0.07629161
161	0x3cf773d6	0.030206602
162	0xbd5b6cdd	-0.053570617
163	0x3d2dd328	0.042437702
164	0x3d63e38f	0.05563694
165	0x3c0cdad8	0.008597098
166	0x3c8582b8	0.016297683
167	0x3dba77f6	0.09104912
168	0xbd6194ca	-0.055073537
169	0xbdba950f	-0.09110462
170	0x3d7fe8b2	0.062477775
171	0x3d152646	0.036413454
172	0x3c0e182a	0.008672753
173	0x3df15555	0.11783854
174	0xbcc135ac	-0.023585163
175	0xbd57a62d	-0.052648712
176	0xbdc7eef7	-0.09762376
177	0xbcd37bc3	-0.02581585
178	0xbd03a79c	-0.032142267
179	0xbd8e4dbc	-0.069484204
180	0xbbf4ae93	-0.0074671
181	0x3cfde09b	0.03099089
182	0xbc978ca7	-0.018499685
183	0xbcd560ea	-0.026047189
184	0xbd7f9cbf	-0.062405344
185	0xbd40542a	-0.046955265
186	0x3c053990	0.0081314
187	0x3dba44c4	0.09095147
188	0xbc88b1ce	-0.016686346
189	0xbc2f6558	-0.010705315
190	0xbdb43957	-0.08799999
191	0x3c0181af	0.007904454
192	0xbd665f49	-0.056243215
193	0xbe0364f1	-0.12831475
194	0x3d0c9067	0.0343174
195	0xbc90731b	-0.017633012
196	0xbd80eb74	-0.06294909
197	0xbcac4691	-0.021029742
198	0xbac91653	-0.0015341736
199	0x3cb9aa62	0.022664253
200	0xbd1f5a3c	-0.038904414
201	0x3d603988	0.054742366
202	0x3c824065	0.015899846
203	0x3dd80f79	0.10549826
204	0xbdb89c6c	-0.0901421
205	0x3db099fb	0.086231194
206	0x3d8090c2	0.0627761
207	0x3bc28224	0.005935924
208	0xbd18400c	-0.037170455
209	0x3d3ea505	0.046544094
210	0xbda69353	-0.081335686
211	0x3e0ac22c	0.13550633
212	0xbd853952	-0.065050736
213	0x3d356ef4	0.044295266
214	0x3d399800	0.045310974
215	0xbbe138bb	-0.006873218
216	0x3cc7b38e	0.02437761
217	0x3d486141	0.048920874
218	0xbd737957	-0.05944189
219	0x3e062410	0.13099694
220	0x3e17bee2	0.1481891
221	0x3d609a33	0.054834556
222	0x3c70b7a9	0.0146922255
223	0xbd9d5322	-0.07681872
224	0xbba43484	-0.005011143
225	0x3dd82de7	0.1055563
226	0x3d547300	0.051867485
227	0xbc16ca2d	-0.009203476
228	0x3e0a410b	0.13501374
229	0xbcbd16c7	-0.02308215
230	0x3d59d6df	0.053183433
231	0x3ce6675d	0.02812546
232	0x3dcb079a	0.09913559
233	0xbda071f6	-0.07834236
234	0xbe1b7f55	-0.15185292
235	0x3e1914f4	0.14949399
236	0x3d4b9ac2	0.049708135
237	0x3dba2f77	0.090910845
238	0xbd5bd0f5	-0.053666074
239	0x3cc94bd9	0.0245723
240	0xbdd6e36e	-0.104925975
241	0xbdfb1542	-0.12259914
242	0xbd135bd3	-0.035976242
243	0x3c61d58b	0.013783823
244	0x3d96f1ec	0.07370362
245	0xbce8c846	-0.02841581
246	0xbc9dd4ed	-0.01926657
247	0x3de24e76	0.110501215
248	0x3d5cf0ba	0.053940512
249	0xbd94d9f2	-0.07268132
250	0xbdc151fe	-0.09439467
251	0xbd61a89d	-0.055092443
252	0x3d16bc53	0.036800694
253	0xbddff97e	-0.10936259
254	0xbc7b3d68	-0.015334465
255	0xbc717b1f	-0.014738827
