src/AI/vision_model/LSTM_model/lstm_model_dog_final.pt (torch, 867180 bytes, 10 tensors)

lstm.weight_ih_l0 f4 [512, 30]
0	0x3dcfbff4	0.10144034
1	0x3de50aee	0.11183725
2	0x3dcf677e	0.101271614
3	0x3df32188	0.1187163
4	0x3d5c08cb	0.053719323
5	0x3e1d2976	0.15347847
6	0x3df58707	0.11988645
7	0x3e7c7328	0.24653304
8	0xbdfd6092	-0.12371935
9	0xbda0b8fd	-0.07847784
10	0x3e5f06a0	0.21779871
11	0x3e80ad9b	0.2513245
12	0xbd86410a	-0.06555374
13	0xbd557d71	-0.052121583
14	0x3e210366	0.15723953
15	0x3e884012	0.26611382
16	0x3e26840e	0.16261312
17	0x3e4d0c23	0.20024161
18	0x3e1bf05b	0.15228407
19	0x3e45857e	0.19289204
20	0x3d3fe50e	0.046849303
21	0x3c8364fc	0.016039364
22	0x3dfcd6e5	0.123456754
23	0x3e591f51	0.21203353
24	0x3b762488	0.0037558395
25	0xbbb2790e	-0.0054465597
26	0x3dddaa17	0.10823458
27	0x3cb43ca1	0.022001566
28	0x3d951c59	0.072807975
29	0x3ddd5941	0.108080395
30	0xbcd26f36	-0.025687795
31	0xbe67978f	-0.22616409
32	0x3cb40413	0.021974599
33	0xbe32f9d2	-0.17478111
34	0x3d9d00a2	0.07666136
35	0xbe470dfa	-0.19438925
36	0x3b397db8	0.0028303694
37	0xbdf21255	-0.11819903
38	0xbe86875b	-0.26275143
39	0xbe230fdc	-0.15924019
40	0xbe870d4d	-0.26377335
41	0xbe5281d4	-0.20557338
42	0x3eaacc64	0.33359063
43	0xbe459049	-0.19293322
44	0xbe89345d	-0.26797763
45	0xbea3f0f1	-0.3201976
46	0x3e3f1b23	0.18662696
47	0xbeb2b2e8	-0.3490212
48	0xbe64c047	-0.22338973
49	0x3d9ab7c6	0.07554583
50	0x3e922795	0.28545824
51	0x3e5fe240	0.21863651
52	0xbe04b1ba	-0.12958422
53	0x3d8e6fb9	0.06954903
54	0x3e0d140f	0.13777183
55	0x3e4bcbe0	0.19901991
56	0xbd9975d6	-0.074931785
57	0x3e85bc92	0.2612043
58	0xbdc0ad46	-0.09408049
59	0xbd8565fa	-0.06513591
60	0xbda85eb6	-0.0822119
61	0xbdadcd79	-0.084864564
62	0x3da53736	0.08067171
63	0xbcf545d8	-0.02994053
64	0x3daf1e3d	0.08550689
65	0xbd02aed0	-0.031904995
66	0x3d368664	0.04456176
67	0x3d487a55	0.04894479
68	0x3d720fae	0.059096985
69	0xbcee1f81	-0.029067757
70	0xbde35ded	-0.11101899
71	0xbdc41308	-0.095739424
72	0x3e484725	0.1955839
73	0x3d178dd4	0.037000492
74	0xbdc0551c	-0.09391233
75	0xbe02e24b	-0.12781636
76	0xbd1c5534	-0.038167194
77	0xbd8301b9	-0.06396813
78	0xbe1090a6	-0.14117679
79	0xbe437ca1	-0.19090511
80	0x3ce3633f	0.027757285
81	0xbdcdf7d9	-0.10057039
82	0x3c924610	0.017855674
83	0xbcacb5d9	-0.021082805
84	0xbe1b3014	-0.15155059
85	0xbda2f212	-0.079563275
86	0xbc1e56c3	-0.00966424
87	0xbd70075f	-0.05860078
88	0xbd845118	-0.0646078
89	0xbdd25e89	-0.102719374
90	0xbc552025	-0.013008152
91	0xbccc60b9	-0.024948465
92	0x3e45f71c	0.19332546
93	0x3dce18d3	0.100633286
94	0xbd2414df	-0.040058967
95	0x3d027252	0.031847306
96	0x3e02064e	0.12697718
97	0x3e211e45	0.15734203
98	0xbe938fcd	-0.2882065
99	0xbe87cae2	-0.26521975
100	0xbe9e2e77	-0.30894825
101	0xbe5c82e3	-0.21534304
102	0x3e4f9682	0.20272258
103	0x3dfea808	0.12434393
104	0xbe3f1861	-0.18661644
105	0x3cf2f1f1	0.029656382
106	0x3d9bd5b4	0.0760912
107	0x3e24e1a8	0.16101706
108	0xbe5afd95	-0.21385796
109	0xbeba9053	-0.36438236
110	0xbdf215a3	-0.11820533
111	0xbe4e7908	-0.20163357
112	0xbe0a9768	-0.1353432
113	0xbe2c024e	-0.16797754
114	0x3ae8193f	0.0017707719
115	0xbe380d5d	-0.17973848
116	0x3c557bf9	0.013030046
117	0xbe670602	-0.22560886
118	0x3d5b7d90	0.053586543
119	0xbe461fa0	-0.19348001
120	0x3cdad51e	0.02671295
121	0x3e07aa58	0.13248575
122	0x3d870b19	0.065939136
123	0x3d8db6f0	0.06919658
124	0xbaa1fcb0	-0.0012358632
125	0x3dbbbc93	0.09166827
126	0xbc5a255c	-0.013314571
127	0xbcd23a07	-0.025662435
128	0x3cb18649	0.021670477
129	0x3de326ef	0.1109141
130	0xbd50644d	-0.050876904
131	0x3dc0fe3a	0.0942349
132	0xbbc9012b	-0.0061341724
133	0x3dd8d12f	0.105867736
134	0x3d2b6c1c	0.041851148
135	0x3dfb5f63	0.12274053
136	0x3d99be1a	0.07506962
137	0x3d44ca8d	0.04804473
138	0x3ddaeb33	0.10689392
139	0x3dd77bb6	0.10521643
140	0xbd8fca54	-0.07021013
141	0x3df72d5d	0.12069199
142	0x3d084419	0.033268068
143	0x3d9763fa	0.07392116
144	0x3c74282e	0.014902158
145	0x3d593d3c	0.053036913
146	0x3d438b6a	0.047740377
147	0xbdce1424	-0.10062435
148	0x3d5aeefa	0.053450562
149	0x3df3c0fd	0.11902044
150	0x3e4bc2b4	0.19898492
151	0x3e442629	0.19155182
152	0xbc2aebf8	-0.010432236
153	0xbd90dc5e	-0.07073282
154	0x3e11e119	0.14246024
155	0x3d9d33b7	0.076758794
156	0x3d3a1c03	0.04543687
157	0x3e423ff6	0.18969712
158	0xbcced03e	-0.025245782
159	0xbe02f625	-0.12789209
160	0x3e57f8a0	0.21090937
161	0x3df2e57a	0.118601754
162	0xbe1ce03a	-0.1531991
163	0xbe1c552a	-0.15266863
164	0x3c6df654	0.014524061
165	0x3e4d44eb	0.20045821
166	0xbd5e19b5	-0.054223735
167	0x3ce611f9	0.028084742
168	0x3e2afe52	0.16698578
169	0x3e47980c	0.19491595
170	0xbd3cbec6	-0.046080373
171	0xbd3b9e40	-0.045805216
172	0x3c08fc84	0.008360986
173	0x3d963767	0.07334786
174	0x3e099ecf	0.13439487
175	0x3e13b837	0.14425741
176	0xbd981343	-0.07425549
177	0xbd79b1b8	-0.0609605
178	0xbdc6916f	-0.09695708
179	0xbd81ea9b	-0.063435756
180	0xbd31dc14	-0.043422773
181	0xbe333df7	-0.17504106
182	0xbdcbe7a3	-0.099562906
183	0xbde3c9c7	-0.1112247
184	0xbda484ef	-0.080331676
185	0xbd201734	-0.03908463
186	0xbd557d1a	-0.05212126
187	0xbde113d0	-0.10990107
188	0xbe1f18cd	-0.15536804
189	0xbe0ad638	-0.1355828
190	0xbe13e643	-0.14443307
191	0xbe3b8be3	-0.18315081
192	0xbcb800de	-0.022461351
193	0xbcc491bc	-0.023995273
194	0xbd99230c	-0.07477388
195	0xbcaa02ff	-0.020753382
196	0xbe22f414	-0.15913421
197	0xbdbc71d8	-0.092014015
198	0xbce4daf9	-0.027936446
199	0xbcdffe23	-0.027342862
200	0xbd38e596	-0.045140825
201	0xbd1d7f2a	-0.03845135
202	0xbdb563fc	-0.08856961
203	0xbdb4a025	-0.08819608
204	0xbd2c8859	-0.04212222
205	0xbdd16772	-0.10224809
206	0xbe160a9f	-0.14652489
207	0xbd925459	-0.07144994
208	0xbdb8a048	-0.09014946
209	0xbdbd0bdb	-0.09230777
210	0x3c8bd6a4	0.017070122
211	0x3e66c846	0.22537336
212	0x3cedff8b	0.029052516
213	0x3e199d02	0.150013
214	0xbe901587	-0.28141424
215	0x3da6725c	0.08127281
216	0xbec0bb82	-0.37643057
217	0xbdb45794	-0.08805767
218	0xbd932680	-0.07185078
219	0x3de5f7b1	0.11228884
220	0xbe7cba2f	-0.24680398
221	0x3e032b38	0.12809455
222	0x3cee42a1	0.029084506
223	0x3e6b7ab6	0.2299603
224	0xbea57440	-0.32315254
225	0xbe1561fa	-0.14588156
226	0x3d0fb8e4	0.035088435
227	0x3e5e8d0a	0.2173349
228	0x3e91a171	0.28443483
229	0x3e37002f	0.17871164
230	0x3e20f494	0.15718299
231	0x3e4b8db0	0.19878268
232	0x3eab1922	0.33417612
233	0x3e00e22b	0.12586276
234	0x3e3b3d81	0.1828518
235	0x3e4ceec3	0.20012955
236	0x3e7e9d14	0.24864608
237	0x3dbb5085	0.09146217
238	0x3e894319	0.26809004
239	0xbdd00600	-0.101573944
240	0xbe89e9c4	-0.26936162
241	0xbe894d5e	-0.2681684
242	0xbe8f07cb	-0.27935633
243	0xbe950051	-0.29101804
244	0xbdbfa0b0	-0.093568206
245	0xbcec2186	-0.028824579
246	0x3d22f58e	0.03978496
247	0xbadc8067	-0.0016822935
248	0xbc4dbe9b	-0.012557651
249	0x3d3b82c6	0.045779012
250	0x3cae58bd	0.021282548
251	0x3d3845e0	0.044988513
252	0x3d0a2287	0.033724334
253	0xbc3b6efc	-0.011440035
254	0x3d4b7733	0.049674224
255	0x3d04f147	0.032456663

lstm.weight_hh_l0 f4 [512, 128]
0	0x3e5a7937	0.21335302
1	0xbe99db47	-0.30050108
2	0x3ddf8b9f	0.109153025
3	0xbd827b33	-0.06371155
4	0x3e8d036f	0.27541682
5	0xbd166559	-0.036717746
6	0x3d24db02	0.040247925
7	0xbe2be611	-0.16786982
8	0xbe2055ff	-0.15657805
9	0xbd07d370	-0.033160627
10	0x3cd5d39b	0.026101878
11	0x3e310110	0.17285562
12	0xbe9a2ef2	-0.3011394
13	0x3e3f5dd2	0.18688133
14	0x3e0b6ec7	0.13616477
15	0x3d8f4106	0.06994824
16	0xbd80d9f9	-0.06291575
17	0xbdd011ef	-0.101596706
18	0x3ea03c77	0.3129613
19	0xbe08ad9c	-0.13347477
20	0xbda6decb	-0.08147963
21	0xbe8670a0	-0.262578
22	0x3bc1d4f3	0.005915278
23	0x3e8eec63	0.27914724
24	0x3d6fbecb	0.058531564
25	0x3e50d904	0.20395285
26	0xbe4d1335	-0.20026858
27	0xbdf56076	-0.11981289
28	0x389775a7	7.2221555e-05
29	0x3dabadf7	0.083827905
30	0xbd0889de	-0.033334605
31	0xbe0b22d6	-0.13587508
32	0x3d96d69d	0.07365153
33	0x3e62d18b	0.22150247
34	0x3de13c68	0.1099785
35	0x3d4fd31d	0.050738443
36	0x3dc6a537	0.09699481
37	0x3cdcd200	0.026955605
38	0x3eb3b6df	0.35100457
39	0x3e999d96	0.3000304
40	0x3d51af1f	0.0511924
41	0xbc41d939	-0.011831575
42	0xbe48f4ca	-0.1962463
43	0xbd1ca23d	-0.03824066
44	0xbeef466f	-0.46733424
45	0xbde71bbc	-0.11284587
46	0xbe9815d5	-0.29704157
47	0x3d4e8864	0.05042304
48	0xbe8825b4	-0.26591265
49	0x3de41fae	0.11138855
50	0xbe38a9b7	-0.18033491
51	0x3d25d500	0.040486336
52	0xbe5c9710	-0.21542001
53	0x3d81b15a	0.06332655
54	0xbd4c41f4	-0.049867585
55	0x3bb5dd92	0.005550095
56	0xbeb4618d	-0.35230675
57	0xbf22076c	-0.63292575
58	0x3e45f6ac	0.19332379
59	0x3e6c5c96	0.23082194
60	0xbc8792e9	-0.016549544
61	0xbeb29de2	-0.3488608
62	0x3ddb35ea	0.10703643
63	0xbe9efbbd	-0.31051436
64	0x3dc545f7	0.09632485
65	0xbe62c1da	-0.22144261
66	0xbd6e1c9c	-0.058132753
67	0x3d96fc7b	0.073723756
68	0xbde09e63	-0.1096771
69	0xbec786f2	-0.38970143
70	0x3dc9f8f7	0.098619394
71	0x3c8b1bf1	0.016981097
72	0xbe6300f2	-0.2216833
73	0xbd302c80	-0.04301119
74	0xbe68f098	-0.22748029
75	0x3eb07e5c	0.34471405
76	0x3d660222	0.056154378
77	0xbe394b35	-0.18095095
78	0x3d37c35a	0.044864036
79	0xbc20840a	-0.009797106
80	0x3d6664c2	0.056248434
81	0xbde03ad5	-0.10948721
82	0xbe203d15	-0.15648301
83	0x3e0fd9d3	0.14047937
84	0xbea1deb6	-0.31615227
85	0xbbf2ad24	-0.007405894
86	0x3ca969d8	0.020680353
87	0xbd77af79	-0.06047008
88	0x3e127951	0.14304091
89	0xbda7fc79	-0.08202452
90	0x3d9dad61	0.07699085
91	0x3de735d6	0.11289565
92	0xbdace8f0	-0.08442867
93	0xbed9a017	-0.4250495
94	0xbe0bd0e6	-0.13653907
95	0x3e8391c6	0.25697154
96	0x3d9c596b	0.076342426
97	0xbe88701f	-0.26648042
98	0x3dea8040	0.11450243
99	0xbd8c7667	-0.06858521
100	0xbe67d940	-0.22641468
101	0xbcfde498	-0.030992791
102	0xbdbe6171	-0.09295929
103	0x3a89c930	0.0010512229
104	0x3de1905b	0.11013862
105	0x3e630e9c	0.22173542
106	0x3e8602cf	0.26174018
107	0xbca37065	-0.019951055
108	0xbe81bf8e	-0.25341457
109	0x3b0c9489	0.0021450839
110	0x3cb42ad5	0.02199308
111	0x3d75a648	0.05997303
112	0x3df5e072	0.120057
113	0xbda30d08	-0.0796147
114	0x3e0592da	0.130443
115	0xbd6a45e4	-0.05719556
116	0x3e2ea123	0.17053656
117	0xbdf732c4	-0.1207023
118	0xbdf347f4	-0.11878958
119	0x3d4de3fa	0.050266244
120	0xbe6b0717	-0.22951923
121	0x3d975a50	0.073902726
122	0x3e2f6ad3	0.17130594
123	0x3e030463	0.12794642
124	0x3dee20c1	0.11627341
125	0x3d9c9f87	0.07647615
126	0x3cf47496	0.029840749
127	0x3e9a373f	0.30120274
128	0x3e58ab8e	0.21159193
129	0x3f87af5a	1.0600388
130	0xbe0d1d55	-0.1378072
131	0xbeaf42e1	-0.34230712
132	0xbe2a19f4	-0.16611463
133	0xbe24cbda	-0.16093388
134	0xbc82b4c9	-0.015955346
135	0xbdc67b95	-0.0969154
136	0x3da25e6c	0.07928166
137	0xbd605d9e	-0.05477678
138	0xbe6e5170	-0.23273253
139	0xbe08c866	-0.13357696
140	0x3e5107ca	0.20413128
141	0xbdd3f5c5	-0.10349611
142	0xbe9067ad	-0.28204098
143	0xbe40b78d	-0.18820019
144	0xbc8be790	-0.017078191
145	0x3ce10551	0.027468355
146	0xbe5b9fe5	-0.21447714
147	0xbe1daefe	-0.15398785
148	0xbe049057	-0.12945686
149	0x3e3160c3	0.17322068
150	0xbd9088ee	-0.07057367
151	0x3a7e77fb	0.00097072095
152	0xbcee1fac	-0.029067837
153	0xbe906638	-0.28202987
154	0xbdf16215	-0.11786286
155	0x3dcb088b	0.09913739
156	0xbdceb7ab	-0.10093626
157	0x3e73e643	0.23818307
158	0x3e4547cf	0.19265674
159	0x3ca45137	0.020058258
160	0x3d7a0daf	0.061048206
161	0x3e3d7bdf	0.18504284
162	0xbe3e41fb	-0.18579857
163	0x3e77b037	0.24188314
164	0xbe86002a	-0.26172
165	0x3cbc3da1	0.022978606
166	0x3d61a167	0.055085566
167	0x3dcb2fbf	0.09921216
168	0xbd49cbc7	-0.049266603
169	0x3e452d12	0.19255474
170	0xbe350289	-0.17676748
171	0xbe81526b	-0.25258192
172	0x3e0372a8	0.12836707
173	0xbd7d6f21	-0.06187356
174	0xbdd30944	-0.10304502
175	0x3e8403e5	0.2578422
176	0x3e848b9a	0.25887758
177	0x3e2b6852	0.16739014
178	0x3e8cde01	0.27513126
179	0x3da683a4	0.08130577
180	0x3e0324ff	0.12807082
181	0xbe279437	-0.16365133
182	0xbe2aa123	-0.16663031
183	0xbd12ada7	-0.03581014
184	0xbdbe8495	-0.09302632
185	0x3e7e9f9b	0.24865572
186	0x3d852044	0.06500295
187	0x3cee345f	0.029077707
188	0xbe7eca61	-0.24881889
189	0x3e267c33	0.16258316
190	0xbe1b8249	-0.15186419
191	0x3e488613	0.19582395
192	0x3d51dcd5	0.051235992
193	0xbd9a175f	-0.07523989
194	0x3e6de294	0.23230964
195	0x3cbcc669	0.023043828
196	0x3e6e8028	0.23291075
197	0xbe317c8f	-0.17332672
198	0xbcdebb14	-0.027188815
199	0xbe114916	-0.14188036
200	0xbe50bbe7	-0.20384179
201	0x3ddca043	0.10772755
202	0xbc227939	-0.009916597
203	0xbe0271cf	-0.12738727
204	0xbd8237f9	-0.06358332
205	0xbe0b78f5	-0.1362036
206	0x3e777732	0.24166563
207	0x3dbe2816	0.092849895
208	0x3e86c1b4	0.2631966
209	0x3e912452	0.28348023
210	0x3cfcac11	0.030843766
211	0x3eb183ff	0.34671018
212	0xbe2e0a13	-0.1699603
213	0xbd13aae1	-0.036051635
214	0xbde42fae	-0.11141907
215	0x3e42a978	0.1900996
216	0x3e359936	0.17734227
217	0x3d90925b	0.07059165
218	0xbe14a4d3	-0.14516
219	0x3d87fd71	0.06640137
220	0x3ed7b7ca	0.42132407
221	0x3e5e6771	0.21719147
222	0xbc98d485	-0.018656025
223	0xbc6c0b75	-0.014407028
224	0xbd7bb9a9	-0.061456356
225	0x3b2cc769	0.0026363975
226	0x3df48632	0.11939658
227	0xbe4b82f0	-0.19874167
228	0xbdcc0688	-0.09962183
229	0x3ee0ea82	0.43928915
230	0x3e0165fe	0.12636563
231	0x3e5eb21c	0.21747631
232	0xbe3fb437	-0.1872109
233	0x3ceec4a2	0.029146496
234	0x3e5b75ea	0.214317
235	0x3e751f47	0.23937713
236	0xbe1af64f	-0.15133022
237	0xbe933511	-0.28751424
238	0x3d89b274	0.0672349
239	0x3cc090d1	0.023506554
240	0x3dbcce0f	0.0921899
241	0x3e3e6100	0.1859169
242	0xbda5961c	-0.08085272
243	0x3e7ab5dc	0.24483436
244	0xbc1f8a5b	-0.009737576
245	0xbe350b85	-0.17680176
246	0xbda3fb4a	-0.08006914
247	0x3e26a47e	0.16273686
248	0x3c234e37	0.009967378
249	0xbe006ffc	-0.12542719
250	0x3ea61de0	0.32444668
251	0xbe491675	-0.19637473
252	0xbeabee7c	-0.33580387
253	0xbdc286cb	-0.09498366
254	0xbd295bba	-0.041347243
255	0xbdbd7347	-0.09250503

lstm.bias_ih_l0 f4 [512]
0	0xbb93f612	-0.004515418
1	0xbe24bc2c	-0.16087407
2	0x3eeca420	0.46218967
3	0xbe8e4b00	-0.27791595
4	0x3e00ab32	0.12565306
5	0x3d068d9a	0.032849886
6	0x3def6cf6	0.116907045
7	0x3dd880b6	0.10571425
8	0xbe69bbbe	-0.22825524
9	0x3e356b30	0.1771667
10	0x3f18043f	0.5938148
11	0x3e2699b8	0.16269577
12	0x3c4670d0	0.0121118575
13	0x3d6640c7	0.05621412
14	0x3e81bf7c	0.25341403
15	0xbe01cb68	-0.1267525
16	0x3d1773fe	0.036975853
17	0x3c116908	0.008875139
18	0x3e9bbdb4	0.3041817
19	0xbe1d3ab3	-0.15354423
20	0x3e971f98	0.29516292
21	0xbde3284e	-0.11091672
22	0x3e5a68dc	0.21329063
23	0x3d90eb9e	0.070761904
24	0x3e7ed535	0.2488602
25	0x3d46b612	0.04851348
26	0x3e6a73ee	0.22895786
27	0x3e87b5c4	0.26505864
28	0x3e00e5b0	0.12587619
29	0x3db04a65	0.0860794
30	0x3e67a6e4	0.22622257
31	0x3dcf997c	0.10136697
32	0x3edc3f26	0.43016928
33	0x3f592fb3	0.8483841
34	0xbdcb2685	-0.099194564
35	0x3e24c830	0.1609199
36	0x3e25a3dc	0.16175789
37	0xbdcdf3b5	-0.10056249
38	0x3ec4dd2e	0.38449997
39	0xbe772aae	-0.24137375
40	0xbdc99584	-0.09842971
41	0x3ebe07b8	0.37115264
42	0x3e670520	0.22560549
43	0x3ec4e79e	0.3845796
44	0xbd6d5c8d	-0.05794959
45	0x3d29a44d	0.041416455
46	0x3e650577	0.22365366
47	0x3e8e9d17	0.27854225
48	0x3edd8949	0.43268803
49	0xbc4c11a4	-0.012455378
50	0xbcf13970	-0.029446334
51	0x3d9f87e9	0.07789595
52	0xbdaa3fc3	-0.08312943
53	0x3d89d1a1	0.06729437
54	0xbc6fd0b5	-0.014637162
55	0x3ee06222	0.4382487
56	0xbe204d41	-0.1565447
57	0xbd106a12	-0.035257407
58	0x3db03853	0.08604493
59	0xbe18de54	-0.14928561
60	0xbe79df3b	-0.24401562
61	0x3e240eec	0.16021317
62	0x3e24f2f6	0.16108307
63	0x3e7395bd	0.2378759
64	0x3dead840	0.11467028
65	0x3d19ac70	0.037517965
66	0x3e5b4059	0.21411265
67	0x3d73f7d2	0.05956251
68	0x3e2f53e7	0.1712185
69	0x3dacf4d2	0.08445133
70	0x3f192627	0.5982384
71	0x3dc779af	0.09740006
72	0x3d049e7e	0.032377712
73	0xbdbf0174	-0.09326449
74	0x3e21035c	0.15723938
75	0xbddce084	-0.107850105
76	0x3e0e51d8	0.13898408
77	0x3ec4791a	0.38373643
78	0xbd5dfae7	-0.054194357
79	0xbd226321	-0.039645318
80	0x3db4880c	0.088150114
81	0x3e697f72	0.22802523
82	0x3e1ee95b	0.15518706
83	0x3e7f08d5	0.24905713
84	0x3e397915	0.18112595
85	0x3e999249	0.2999442
86	0x3e370b08	0.17875302
87	0x3d57f284	0.052721515
88	0xbcf1e615	-0.029528657
89	0x3eb64f12	0.356072
90	0x3d88ee5e	0.0668609
91	0x3d84cfe7	0.06484967
92	0x3dd7cb0f	0.10536777
93	0x3e625b8d	0.22105236
94	0xbe62536e	-0.22102138
95	0xbe02b216	-0.12763247
96	0x3df07646	0.11741309
97	0x3ed1ad3a	0.40952474
98	0xbc01f8d7	-0.007932863
99	0x3d555bee	0.052089624
100	0xbe95391f	-0.29145142
101	0x3de8a15a	0.113589
102	0x3c1895ab	0.009313027
103	0xbd8569bf	-0.0651431
104	0xbc278b1b	-0.010226036
105	0x3e2da1b7	0.1695622
106	0x3e984ca7	0.2974598
107	0xbcf47ce0	-0.029844701
108	0x3c24cbe2	0.010058375
109	0x3e2d9430	0.1695106
110	0xbe861dc5	-0.26194587
111	0x3e1bc7a7	0.1521288
112	0x3e5fa269	0.21839298
113	0x3d29f163	0.04148997
114	0x3df4b67a	0.11948867
115	0x3d17795b	0.036980968
116	0x3dbcb5a1	0.092143305
117	0x3e9fa23c	0.31178463
118	0xbd216ec6	-0.039412282
119	0x3dd95811	0.106125005
120	0x3e545112	0.20734051
121	0x3e52e6f6	0.20595917
122	0x3f0327ed	0.51232797
123	0xbdf535f7	-0.119731836
124	0x3e3dd753	0.18539171
125	0x3ea097fa	0.3136595
126	0x3dd31dee	0.10308443
127	0x3e33da55	0.17563756
128	0x3d3989e7	0.04529753
129	0x3e33ba6b	0.17551582
130	0x3dbedcbb	0.09319445
131	0xbdf5a425	-0.11994199
132	0x3e286f9d	0.16448827
133	0xbe164313	-0.14674024
134	0x3eb213d7	0.34780762
135	0x3e2875dc	0.1645121
136	0xbc456b38	-0.012049489
137	0x3e55f151	0.20892836
138	0x3e18dbae	0.14927551
139	0xbdb0d2e7	-0.086339764
140	0xbe408600	-0.18801117
141	0x3de99dc6	0.11407046
142	0x3e74fa69	0.23923649
143	0xbd4419f4	-0.047876313
144	0xbdbbc07e	-0.09167574
145	0x3ec8afaa	0.3919652
146	0x3e6a8eef	0.22906087
147	0xbec364dd	-0.3816289
148	0x3e8ff3f0	0.28115797
149	0xbe8c9808	-0.2745974
150	0x3e91a02d	0.28442517
151	0x3e97cc96	0.29648274
152	0xbed0514b	-0.40687022
153	0xbc93829f	-0.01800662
154	0xbe69a51e	-0.22816893
155	0xbd81c6d3	-0.06336751
156	0x3eb2becf	0.349112
157	0x3de4c2be	0.111699566
158	0x3d58eb7a	0.052958943
159	0xbe8976cf	-0.26848456
160	0x3ebf8f55	0.3741404
161	0xbe375513	-0.17903547
162	0xbe884d0a	-0.26621276
163	0xbdc75f7d	-0.0973501
164	0xbdd252cb	-0.10269698
165	0x3d4c7242	0.049913652
166	0x3da68527	0.081308655
167	0xbe584e3e	-0.21123597
168	0x3de5eb90	0.112265706
169	0xbc95aa70	-0.018269747
170	0xbe81fc50	-0.25387812
171	0x3e865e88	0.26243997
172	0x3d6eece6	0.058331393
173	0xbe0b1864	-0.13583523
174	0xbc876259	-0.016526388
175	0xbdda1a67	-0.10649567
176	0x3e7eb3c0	0.24873257
177	0xbda481c4	-0.08032563
178	0x3e5a3d7a	0.21312514
179	0xbe7a83d8	-0.24464357
180	0x3e1b9545	0.1519366
181	0xbd83ea6e	-0.06441198
182	0xbe7fa168	-0.24963915
183	0xbd6b069e	-0.057379358
184	0x3d7d68cb	0.061867516
185	0xbcea05c4	-0.028567202
186	0xbd10c446	-0.03534343
187	0x3e2bda93	0.16782598
188	0xbd117eb2	-0.035521217
189	0xbd8b1cc6	-0.067925975
190	0xbe271c32	-0.1631935
191	0x3d170e2b	0.036878746
192	0xbe9b4636	-0.30327004
193	0xbdd0583e	-0.10173081
194	0xbcec4bb5	-0.028844694
195	0x3dfa1529	0.12211067
196	0xbe2b8bad	-0.16752501
197	0xbead8c24	-0.3389598
198	0x3dbff49a	0.09372826
199	0xbe541373	-0.20710544
200	0x3c3c495b	0.011492099
201	0x3e14964c	0.14510459
202	0xbc290216	-0.010315439
203	0xbe462056	-0.19348273
204	0xbde2afc5	-0.11068682
205	0x3d076fc8	0.033065587
206	0x3e8bf56c	0.2733568
207	0xbeba9ad2	-0.36446244
208	0xbdb3fbac	-0.08788237
209	0xbd82f496	-0.06394307
210	0xbd3de2fb	-0.046359044
211	0x3d8d94c6	0.06913142
212	0xbebc0edf	-0.36730096
213	0x3e9a029c	0.30080116
214	0xbe25aee4	-0.16179997
215	0xbea217a1	-0.31658652
216	0x3e455022	0.1926885
217	0x3e4ef25f	0.20209645
218	0xbe242aa6	-0.16031894
219	0xbe570ed6	-0.21001753
220	0x3d0a4da6	0.033765458
221	0x3e904c61	0.28183272
222	0xbec327d6	-0.3811633
223	0x3d36bf7e	0.044616215
224	0xbe560a1c	-0.20902294
225	0x3b9247b3	0.0044641136
226	0x3d8566f7	0.065137796
227	0x3e0fa86b	0.1402909
228	0x3e5f4bde	0.21806285
229	0x3e0b59ad	0.13608427
230	0xbe82e918	-0.2556846
231	0xbd15894d	-0.036507893
232	0x3e6467cc	0.2230522
233	0xbd53b128	-0.05168262
234	0xbe3178df	-0.17331265
235	0x3da6a3b7	0.08136695
236	0x3e032b29	0.12809433
237	0x3d053e27	0.032529976
238	0x3e5b09d4	0.21390468
239	0x3ce4be32	0.027922723
240	0xbe152a4b	-0.14566915
241	0xbe85d5ee	-0.26139778
242	0x3ec1753e	0.3778476
243	0xbd3e7a6b	-0.046503466
244	0xbe1292e4	-0.14313847
245	0x3e77dc57	0.24205147
246	0x3d11cb48	0.035594255
247	0xbdea9e13	-0.114559315
248	0x3e52a23e	0.20569703
249	0x3e239fdf	0.15978955
250	0x3cd4c571	0.025973054
251	0xbe3b671b	-0.1830105
252	0x3dcfd2d7	0.101476364
253	0xbdd075f9	-0.101787515
254	0x3e0976d1	0.13424231
255	0x3e495032	0.19659498

lstm.bias_hh_l0 f4 [512]
0	0x3d7bf23e	0.061510317
1	0xbe0cfc38	-0.13768089
2	0x3ee5b126	0.44861716
3	0xbe42e78b	-0.19033639
4	0x3da13ba1	0.078727014
5	0x3d9143cc	0.07093009
6	0x3e1ebd8e	0.15501997
7	0x3e07e2ba	0.13270083
8	0xbe4dd5c5	-0.20101078
9	0x3dd54a0f	0.10414516
10	0x3f22e1f4	0.6362603
11	0x3e7b38e5	0.24533422
12	0x3dd62c3e	0.10457657
13	0x3d9db2d4	0.077001244
14	0x3e70acaf	0.23503374
15	0xbe2693e8	-0.1626736
16	0x3d880eb7	0.06643432
17	0xbca600c4	-0.020264037
18	0x3e33f2fc	0.1757316
19	0xbddb4562	-0.10706593
20	0x3e113cd4	0.1418336
21	0xbe1e3377	-0.1544932
22	0x3e0c82fa	0.13721839
23	0x3dbc543e	0.091957554
24	0x3eaf34fa	0.34220105
25	0x3d330996	0.043710314
26	0x3e72d69a	0.23714676
27	0x3e222e98	0.15838087
28	0x3e2161e8	0.15760005
29	0x3e73fb2d	0.23826285
30	0x3e10df5a	0.14147702
31	0x3e1ef477	0.15522943
32	0x3f02f76e	0.511588
33	0x3f4b11c7	0.79324
34	0xbdeb4129	-0.11487038
35	0x3e25ad00	0.16179276
36	0x3bcfb579	0.006338772
37	0xbdfe0486	-0.124032065
38	0x3ec55044	0.385378
39	0xbdcea56c	-0.100901455
40	0xbe5c8db4	-0.2153843
41	0x3ee2d839	0.4430559
42	0x3e2df316	0.16987261
43	0x3ed399b8	0.41328216
44	0xbd3d3093	-0.046188902
45	0xbc7db260	-0.015484422
46	0x3e3775bd	0.17916007
47	0x3eb0ad79	0.3450735
48	0x3ed4d127	0.4156582
49	0xbd0b2eef	-0.033980306
50	0xbe1ad568	-0.1512047
51	0x3dc7140d	0.09720621
52	0xbc641be7	-0.013922668
53	0x3e1a58ac	0.15072888
54	0xbdea44c3	-0.114388965
55	0x3e904d04	0.28183758
56	0xbe556f7b	-0.20843308
57	0x3d1de1e4	0.038545504
58	0x3be12463	0.0068707927
59	0xbc5cf916	-0.013487121
60	0xbe02b7cb	-0.12765424
61	0x3dc8634f	0.097845666
62	0x3d1ae2a3	0.037813794
63	0x3e613b2e	0.21995232
64	0x3dd11b54	0.102102906
65	0x3e0e412a	0.13892046
66	0x3e29d791	0.16586138
67	0x3d1906f4	0.037360147
68	0x3e3206e1	0.17385437
69	0x3e1a8fed	0.15093966
70	0x3f0d4622	0.5518514
71	0x3e097f9d	0.13427587
72	0x3d95a99d	0.07307742
73	0x3c409e5d	0.011756507
74	0x3e61429a	0.21998063
75	0xbcea9135	-0.028633693
76	0x3e592878	0.21206844
77	0x3e8b214c	0.2717384
78	0xbd250a8c	-0.04029326
79	0x3d2fa971	0.0428862
80	0x3d9c4020	0.076294184
81	0x3e4a0220	0.19727373
82	0x3c3a6289	0.011376032
83	0x3e4ddc3b	0.20103543
84	0x3d906d25	0.07052068
85	0x3ec5676b	0.38555464
86	0x3e05bcf1	0.13060357
87	0x3d3f2e82	0.046675213
88	0xbd48b3ee	-0.04899972
89	0x3ea0c17a	0.3139761
90	0x3ce3fc58	0.027830288
91	0x3de42f72	0.11141862
92	0x3e413bf0	0.1887052
93	0x3e253b59	0.1613592
94	0xbe2a8580	-0.16652489
95	0xbe72219e	-0.23645636
96	0x3e27f1d7	0.16400848
97	0x3eebc1fc	0.46046436
98	0xbdc27804	-0.094955474
99	0x3d639466	0.055561446
100	0xbe9749a1	-0.29548362
101	0x3e3f2212	0.1866534
102	0x3c6f4d61	0.014605851
103	0x3da97d30	0.08275831
104	0xbe1567a3	-0.14590316
105	0x3d225a14	0.039636686
106	0x3e9975cf	0.29972693
107	0xbd296331	-0.041354362
108	0x3cac7870	0.021053523
109	0x3c819feb	0.015823325
110	0xbe5a22ea	-0.21302381
111	0x3e52143d	0.20515533
112	0x3e234149	0.15942873
113	0x3daf0b8a	0.08547123
114	0x3e11cbb2	0.1423786
115	0x3d882631	0.066479094
116	0x3d7fa1f0	0.062410295
117	0x3e9b296a	0.30305034
118	0xbcf8ab6b	-0.030355176
119	0x3e2b6262	0.16736749
120	0x3e2e9cde	0.17052028
121	0x3e2b0cf2	0.16704157
122	0x3ee9044a	0.45511085
123	0xbe3f60fa	-0.18689337
124	0x3daa95e2	0.08329369
125	0x3eb73e50	0.35789728
126	0x3e3340b6	0.17505154
127	0x3e12f555	0.14351399
128	0xbd23610d	-0.039887477
129	0x3dc4c470	0.0960778
130	0x3e0919d9	0.13388766
131	0xbd9b0c42	-0.07570697
132	0x3e32f517	0.17476307
133	0xbe0f18cd	-0.13974304
134	0x3e6e59d9	0.23276462
135	0x3d27e734	0.040991977
136	0x3d9397d8	0.07206696
137	0x3e8927df	0.26788232
138	0x3d102c7d	0.035198677
139	0xbe17668a	-0.1478521
140	0xbe6b8d60	-0.23003149
141	0x3e1c249d	0.15248342
142	0x3e70d0a9	0.23517098
143	0xbe26e220	-0.16297197
144	0xbdbb7e3a	-0.09154935
145	0x3e92dec6	0.28685588
146	0x3d8cd7e6	0.06877117
147	0xbe929d14	-0.28635466
148	0x3eb0e856	0.34552258
149	0xbea48af5	-0.32137266
150	0x3e93adbb	0.28843483
151	0x3e954b9d	0.2915925
152	0xbe989b8c	-0.29806173
153	0xbd1dec2e	-0.038555317
154	0xbe537184	-0.20648772
155	0x3a4fd695	0.00079283986
156	0x3e9ae55d	0.30253115
157	0x3d9532e0	0.07285094
158	0xbbcab556	-0.0061861677
159	0xbe0c69cb	-0.13712232
160	0x3f00ebaa	0.50359595
161	0xbdd4d372	-0.103918925
162	0xbec00340	-0.3750248
163	0xbe17573c	-0.14779371
164	0xbded22dd	-0.11578915
165	0x3d947fc2	0.0725093
166	0x3e4cbd9e	0.19994208
167	0xbe19c8f6	-0.15018067
168	0x3c37de41	0.011222423
169	0xbd7b37d9	-0.061332557
170	0xbe8443ec	-0.2583307
171	0x3e3607dd	0.17776437
172	0x3dddb56d	0.1082562
173	0xbdea1893	-0.114304684
174	0x3d9b0732	0.07569732
175	0xbe16b5ba	-0.1471776
176	0x3e389dfe	0.18029019
177	0xbe008e60	-0.12554312
178	0x3e7a1cfb	0.24425118
179	0xbe73f3bf	-0.2382345
180	0x3e2290e1	0.1587558
181	0x3c529cdd	0.012854782
182	0xbe6707c0	-0.2256155
183	0x3cad9ec8	0.021193877
184	0xbd181307	-0.03712752
185	0x3ce19fbf	0.027541993
186	0xbd52775e	-0.05138337
187	0x3d2d032c	0.042239353
188	0xbe28ce2f	-0.16484903
189	0x3d53de4e	0.05172568
190	0xbd9c4942	-0.0763116
191	0x3c904490	0.017610818
192	0xbe41237f	-0.18861197
193	0xbd41048f	-0.047123488
194	0xbc29652b	-0.010339062
195	0x3e3eefaf	0.1864612
196	0xbe2ab277	-0.16669641
197	0xbe8dc66c	-0.27690446
198	0x3cd85e91	0.02641228
199	0xbe1a0521	-0.15041019
200	0x3dda6e0d	0.10665522
201	0x3e1e10ae	0.1543605
202	0xbc14b3a7	-0.009076036
203	0xbd8a8737	-0.067640714
204	0xbe217565	-0.15767439
205	0x3dbffbfa	0.093742326
206	0x3ecc28ff	0.39875028
207	0xbeea57c6	-0.4577009
208	0x3b190685	0.0023349833
209	0xbda13cac	-0.078729
210	0xbdf0a164	-0.11749533
211	0x3cb53b45	0.022122988
212	0xbeb142dd	-0.34621325
213	0x3ea3a3b8	0.31960845
214	0xbe4027d8	-0.18765199
215	0xbeb29ad7	-0.34883758
216	0x3d494407	0.04913714
217	0x3e01e8ca	0.12686458
218	0xbe5c7ed4	-0.21532756
219	0xbe73b13a	-0.23798075
220	0xbd0cb6b0	-0.034353912
221	0x3e1070ec	0.14105576
222	0xbe957d68	-0.2919724
223	0x3914e7d2	0.0001420074
224	0xbd8625cf	-0.0655018
225	0xbe287f11	-0.16454722
226	0x3e2b58b3	0.16733055
227	0x3de579dd	0.11204884
228	0x3e901743	0.28142747
229	0x3db56aeb	0.088582836
230	0xbe048117	-0.12939869
231	0x3cb8b9d6	0.022549551
232	0x3e2e3fd4	0.17016536
233	0xbd4dac06	-0.050212882
234	0xbe7ede54	-0.24889499
235	0xbd5cb001	-0.053878788
236	0x3e09decb	0.13463895
237	0x3e1a76f1	0.15084435
238	0x3eafae32	0.34312588
239	0x3dec3587	0.11533647
240	0xbdf84b8d	-0.12123785
241	0xbe847121	-0.2586756
242	0x3eb66ba4	0.35628998
243	0x3dabfe23	0.08398082
244	0xbdf9a8f7	-0.121904306
245	0x3e0ba571	0.1363733
246	0xbca8e609	-0.020617502
247	0xbe4c48f4	-0.19949704
248	0x3dfe1e4d	0.12408123
249	0x3dd13419	0.10215015
250	0x3e006e24	0.12542015
251	0xbe0f46d7	-0.13991867
252	0xbc851dd1	-0.01624957
253	0xbe4606be	-0.1933851
254	0x3d40c092	0.04705865
255	0x3e494be8	0.19657862

lstm.weight_ih_l1 f4 [512, 128]
0	0xbdadabad	-0.0848001
1	0xbc9f16f6	-0.019420128
2	0xbcc0fe2f	-0.023558704
3	0xbe59debe	-0.21276376
4	0x3e4c48af	0.19949602
5	0x3d171ea0	0.03689444
6	0xbe96ca8d	-0.2945141
7	0xbdc9ded1	-0.09856952
8	0x3dd62a56	0.10457294
9	0xbe6b2023	-0.22961478
10	0xbe95ad99	-0.29234007
11	0xbe230b7e	-0.15922353
12	0xbdcfe8c8	-0.101518214
13	0x3e01d8d1	0.12680365
14	0x3d046087	0.03231862
15	0x3d0da71f	0.034583207
16	0x3d9314ef	0.07181727
17	0xbe633202	-0.22187045
18	0x3e0ce33d	0.1375856
19	0x3e33117e	0.17487141
20	0x3d8e0153	0.06933846
21	0xbe8f1ee9	-0.2795327
22	0x3de26463	0.110543035
23	0x3e4c38a3	0.1994348
24	0xbdcee32e	-0.10101925
25	0x3ec4f6b5	0.38469473
26	0x3e0aa243	0.1353846
27	0x3df400e1	0.1191423
28	0xbe00bd48	-0.12572205
29	0xbd90e137	-0.07074206
30	0xbd1389db	-0.03602014
31	0xbbaf19d0	-0.0053436533
32	0x3d068730	0.03284377
33	0xbbdfa642	-0.0068252394
34	0x3dffbc59	0.12487096
35	0xbda93902	-0.082628265
36	0xbf13b3f4	-0.5769646
37	0x3f0842fd	0.53227216
38	0xbda3d922	-0.08000399
39	0xbdfb2eda	-0.122647956
40	0xbeb53d34	-0.35398257
41	0x3de0befa	0.10973926
42	0xbd163e79	-0.036680672
43	0xbde2a1e2	-0.11066033
44	0x3b7f6db6	0.0038975305
45	0xbdcb5e0a	-0.09930046
46	0x3df5748b	0.119851194
47	0xbecb4003	-0.39697275
48	0x3e344c57	0.17607246
49	0x3f0fa8ca	0.56116927
50	0xbdda8380	-0.10669613
51	0xbec42060	-0.3830595
52	0xbd992afd	-0.074789025
53	0xbd0dffca	-0.034667768
54	0x3eabe764	0.33574975
55	0x3d9192cb	0.07108077
56	0x3ab1bba9	0.0013559955
57	0x3da56aa5	0.080769815
58	0xbed97a9a	-0.4247635
59	0xbe9fa813	-0.31182918
60	0xbc6e67e8	-0.01455114
61	0x3dfb006b	0.12255939
62	0xbe1fc458	-0.15602243
63	0x3dd0f3ee	0.10202776
64	0x3d8bf974	0.06834689
65	0xbe9c19a9	-0.30488327
66	0x3d9b9fa8	0.075988114
67	0x3e0c0b5d	0.1367621
68	0x3e8b76a9	0.27238968
69	0x3db8d855	0.09025637
70	0xbec1c5bd	-0.37846175
71	0xbe18a26d	-0.1490571
72	0x3dba32f0	0.09091747
73	0x3e55f562	0.20894387
74	0xbdfa7d62	-0.12230946
75	0x3dc7ba72	0.097523585
76	0xbe1dd0a6	-0.15411624
77	0x3e3a34c5	0.18184192
78	0xbe43bdb2	-0.19115332
79	0xbf08349a	-0.53205264
80	0x3e3eaaa5	0.18619783
81	0x3d41707d	0.047226418
82	0x3e364b4c	0.17802161
83	0xbf08aafe	-0.53385913
84	0xbe0f73ed	-0.14009066
85	0x3dbd9cca	0.09258421
86	0xbe1299e2	-0.14316514
87	0x3b945169	0.0045263064
88	0x3e1f8531	0.15578152
89	0xbe9832b1	-0.29726174
90	0xbc797d35	-0.015227606
91	0xbc95520b	-0.018227598
92	0x3d505a5d	0.050867427
93	0x3e752b27	0.23942243
94	0xbc47caa4	-0.012194309
95	0xbe9dc678	-0.30815482
96	0xbe02767c	-0.1274051
97	0x3e3bfe0d	0.18358631
98	0x3e79ffc5	0.24413975
99	0x3d32d256	0.043657623
100	0x3df343b6	0.11878149
101	0xbd778179	-0.06042621
102	0x3e08b7cc	0.13351363
103	0xbe097602	-0.13423923
104	0xbe935527	-0.28775904
105	0x3d7c7690	0.061636508
106	0xbe15a01e	-0.14611861
107	0x3df31968	0.1187008
108	0x3d91f519	0.07126827
109	0xbdc650fd	-0.09683416
110	0x3d78abef	0.060710844
111	0x3ef30618	0.47465587
112	0x3e878b83	0.26473626
113	0x3d619a59	0.055078838
114	0x3db0b1b1	0.08627642
115	0x3f8fbf2f	1.123022
116	0x3e5ff389	0.21870245
117	0x3d13d7ac	0.036094353
118	0x3e8ec1cd	0.27882233
119	0x3dc13976	0.09434788
120	0xbc3acd89	-0.011401542
121	0xbeeecb61	-0.4663954
122	0x3e18414c	0.14868659
123	0x3ddf4ad5	0.10902945
124	0x3da55f7d	0.080748536
125	0xbe51da10	-0.2049334
126	0x3e825b51	0.25460294
127	0x3c6b9f7a	0.014381284
128	0xbd909b1f	-0.07060837
129	0xbb75991c	-0.0037475294
130	0xbd9eb42f	-0.07749211
131	0xbdd62f13	-0.104581974
132	0xbe3baa0f	-0.18326591
133	0xbe00cba1	-0.12577678
134	0xbeff7130	-0.49891043
135	0xbdf78a15	-0.12086884
136	0xbe4e6e83	-0.20159344
137	0xbde0c7eb	-0.10975631
138	0xbccb6678	-0.024829134
139	0x3dbbbe72	0.09167184
140	0x3e8a5b63	0.27022848
141	0xbc02ae0c	-0.007976066
142	0xbe4095d0	-0.18807149
143	0x3b18c530	0.0023310892
144	0xbd09b805	-0.03362276
145	0x3d3b3a39	0.045709822
146	0x3e168ddd	0.14702554
147	0x3e1e5958	0.1546377
148	0xbb6375a3	-0.0034707568
149	0x3dc25487	0.094887786
150	0x3e6cb385	0.23115356
151	0xbea28ad9	-0.31746557
152	0x3ec61e61	0.38695052
153	0xbe870d96	-0.26377553
154	0x3f47f52e	0.7810849
155	0xbe01cd57	-0.12675987
156	0xbefd39a4	-0.4945804
157	0xbd93d4df	-0.07218336
158	0x3e9cbdba	0.306135
159	0xbc6cc5a3	-0.014451417
160	0xbe18e399	-0.14930572
161	0xbd0e806e	-0.03479045
162	0x3ed97454	0.42471564
163	0x3b252247	0.0025197433
164	0xbe171633	-0.14754562
165	0xbe5e4c07	-0.2170869
166	0x3cf88daa	0.030340988
167	0x3d30b2d8	0.04313931
168	0x3f0a2ce8	0.5397477
169	0xbf0198a1	-0.5062352
170	0x3e2e9776	0.17049965
171	0xbe216040	-0.15759373
172	0xbe3b6fc7	-0.18304358
173	0xbd43908d	-0.047745276
174	0xbf1a48e7	-0.6026749
175	0xbf8393bd	-1.0279461
176	0x3e84dd1c	0.25949943
177	0x3ecb394f	0.3969216
178	0xbe6c8515	-0.23097642
179	0x3db8bd73	0.090205096
180	0xbe94debe	-0.2907619
181	0x3d3e5d7c	0.046475872
182	0xbdc926fe	-0.0982189
183	0x3b6270ad	0.0034552023
184	0x3ed822db	0.42214093
185	0x3e11b7b2	0.1423023
186	0xb9f00e99	-0.00045787243
187	0x3d121e1a	0.03567324
188	0xbe73f1e7	-0.23822747
189	0x3f3e7d03	0.744095
190	0xbe9f6661	-0.31132796
191	0x3eeca582	0.46220022
192	0xbd68f686	-0.056875728
193	0x3dcebc85	0.10094551
194	0x3eadbaad	0.33931485
195	0x3dce6e3f	0.100796215
196	0x3e95c167	0.29249117
197	0x3ecbefc5	0.39831367
198	0xbc15a32c	-0.0091331415
199	0x3eac5890	0.33661318
200	0x3e3f272a	0.18667284
201	0x3d8c1df5	0.06841651
202	0x3e162c07	0.14665233
203	0xbde9a3bf	-0.11408185
204	0xbd98a7eb	-0.07453903
205	0xbe2eab23	-0.17057471
206	0xbed98cd3	-0.42490253
207	0x3e1860af	0.14880632
208	0x3d1d8982	0.038461216
209	0xbde65b8d	-0.11247931
210	0xbdb04f29	-0.086088486
211	0x3e16595a	0.14682522
212	0x3c3e38d1	0.011610226
213	0x3e966bac	0.29379022
214	0x3e7dffa3	0.24804549
215	0x3d5c1388	0.053729564
216	0xbf1ccb4d	-0.6124771
217	0x3e83a031	0.25708154
218	0x3e46515f	0.19366978
219	0xbe2ad7c2	-0.16683868
220	0xbe800bc4	-0.25008976
221	0xbc8954f1	-0.016764136
222	0x3e88021f	0.26564118
223	0xbe1f540e	-0.15559408
224	0xbe1118fc	-0.14169687
225	0xbd07d8b4	-0.03316565
226	0x3f209c74	0.6273873
227	0x3e9b812e	0.30371994
228	0xbe47ed6a	-0.1952416
229	0xbdbe19b1	-0.09282244
230	0x3dab4d1f	0.08364319
231	0xbd2030b7	-0.039108958
232	0xbe962364	-0.29323876
233	0x3ec9634c	0.3933357
234	0x3dafea7e	0.08589648
235	0xbdd855ec	-0.10563263
236	0x3d607279	0.05479667
237	0xbb719161	-0.0036860334
238	0xbca75e9e	-0.02043086
239	0xbd9c572d	-0.07633815
240	0xbdd2c07c	-0.1029062
241	0x3cab8d4f	0.020941405
242	0xbe67101c	-0.22564739
243	0x3dde7788	0.108626425
244	0x3f0fc856	0.56165063
245	0xbf095c67	-0.5365662
246	0xbe1c26c6	-0.15249166
247	0x3d8415a3	0.064494394
248	0x3e315194	0.17316276
249	0xbe1bdcb9	-0.15220918
250	0xbd9ac85c	-0.07557747
251	0xbdbfebc3	-0.0937114
252	0xbebea566	-0.37235564
253	0x3d962f87	0.07333284
254	0x3e913750	0.28362513
255	0xbdb9b215	-0.090671696

lstm.weight_hh_l1 f4 [512, 128]
0	0xbeb1659c	-0.34647834
1	0x3da63d44	0.08117154
2	0x3f0105d4	0.5039952
3	0x3f2d4474	0.67682576
4	0xbe86cc65	-0.26327816
5	0xbefab342	-0.48964888
6	0x3e86f09c	0.26355445
7	0xbe829347	-0.2550299
8	0xbca7b5fa	-0.020472515
9	0xbeccaa37	-0.39973614
10	0xbe1083b4	-0.14112741
11	0xbef18742	-0.47173506
12	0xbe4b01d9	-0.19824924
13	0xbce9391c	-0.028469615
14	0xbed285d4	-0.41117728
15	0xbec4d3c7	-0.38442823
16	0x3dc38db9	0.09548516
17	0xbdac2506	-0.08405499
18	0x3d9ea787	0.07746797
19	0x3e1c1331	0.15241696
20	0xbdee0064	-0.11621168
21	0xbca69f3c	-0.0203396
22	0xbea6e540	-0.3259678
23	0x3e0d6214	0.13806945
24	0x3e1e802b	0.1547858
25	0x3d9c4265	0.07629851
26	0xbe1bd31d	-0.15217252
27	0x3eb906a3	0.36137876
28	0x3e04dea8	0.12975562
29	0xbe812c94	-0.25229323
30	0xbdc548c6	-0.09633021
31	0xbece16d9	-0.40251806
32	0xbf34d9e8	-0.70645
33	0xbe0b265e	-0.13588855
34	0xbe37b2ea	-0.17939344
35	0x3cba6732	0.022754285
36	0xbe24628b	-0.16053216
37	0xbec316f6	-0.38103455
38	0x3dac373c	0.084089726
39	0xbfbf99fe	-1.496887
40	0x3e47ca5f	0.19510792
41	0xbd7d920e	-0.061906867
42	0xbea9ad51	-0.33140042
43	0x3f18f2bb	0.5974538
44	0x3e12e72a	0.14345995
45	0xbe20ce89	-0.15703787
46	0x3e844a7c	0.25838077
47	0x3ee6f5c1	0.4510937
48	0x3b255aaf	0.0025231054
49	0x3ecfac66	0.40561217
50	0xbda6fc1e	-0.08153556
51	0xbe03c5dc	-0.12868446
52	0x3f035754	0.5130513
53	0x3f3fdc14	0.7494519
54	0x3e3df219	0.18549384
55	0x3e83311b	0.25623402
56	0xbdcccebe	-0.100003704
57	0x3eb2f0bd	0.34949294
58	0xbd1eab60	-0.038737655
59	0x3e827c1d	0.25485316
60	0x3df6147b	0.12015625
61	0xbd3a4ac1	-0.045481447
62	0xbf14bc79	-0.58100086
63	0xbd6c13dc	-0.057636127
64	0xbe6b5251	-0.2298062
65	0xbe1de20d	-0.15418263
66	0xbed0e33a	-0.4079836
67	0x3e2ec53e	0.1706743
68	0xbcbbe7f2	-0.022937749
69	0x3f36e619	0.7144485
70	0x3e8aaadc	0.2708348
71	0x3f381fc1	0.7192345
72	0x3dc0184a	0.09379633
73	0xbe296aec	-0.16544694
74	0xbe9a4475	-0.30130354
75	0x3e4fed1e	0.20305297
76	0x3ea7ee9e	0.32799238
77	0xbdd1dd0a	-0.10247238
78	0x3e4a9867	0.197847
79	0x3ebd70e2	0.37000185
80	0x3e458358	0.19288385
81	0x3e0bf371	0.13667084
82	0x3ea846cd	0.32866517
83	0x3ce38353	0.027772581
84	0x3ed33ea7	0.41258737
85	0x3e4ece83	0.20195965
86	0xbd240b38	-0.04004976
87	0xbe156169	-0.1458794
88	0xbe8269aa	-0.2547124
89	0xbef5a271	-0.47975495
90	0xbc5aa837	-0.01334577
91	0xbe35b7ca	-0.17745891
92	0xbee6c4fe	-0.45072168
93	0x3ed2661d	0.4109353
94	0x3c746c79	0.01491844
95	0x3eafa639	0.34306505
96	0xbe3dd928	-0.1853987
97	0x3debfc68	0.11522752
98	0xbedd672b	-0.43242773
99	0xbef188a2	-0.47174555
100	0xbccc75fe	-0.024958607
101	0xbe0f2ff7	-0.13983141
102	0xbe3fd285	-0.1873265
103	0x3ec45766	0.3834793
104	0x3f02ff20	0.5117054
105	0xbdc4c4de	-0.09607862
106	0xbe8861f1	-0.26637223
107	0xbd61b45b	-0.05510364
108	0x3ee90979	0.4551504
109	0x3ec2b2ee	0.38027138
110	0x3ea6cc7d	0.32577887
111	0xbde7c542	-0.11316921
112	0xbd92679e	-0.0714867
113	0xbe53d3e6	-0.20686302
114	0xbe256c62	-0.16154626
115	0xbe17d5ee	-0.14827701
116	0x3e263f45	0.16235073
117	0x3dfc2ea6	0.12313585
118	0x3ea4bac0	0.3217373
119	0xbd7c589e	-0.06160795
120	0xbe31b6d1	-0.17354895
121	0x3d6e870c	0.05823426
122	0x3eaf5dea	0.34251338
123	0xbeb8d456	-0.360995
124	0xbdb26cea	-0.0871218
125	0x3de2bdc0	0.11071348
126	0xbd1ce9a3	-0.03830875
127	0x3ed2a92c	0.41144693
128	0xbea7c106	-0.32764453
129	0xbe54f68d	-0.20797177
130	0x3e2d1f76	0.16906533
131	0x3f3a3569	0.7273775
132	0x3ef90a60	0.48640728
133	0x3d6e7e67	0.058226015
134	0xbe67205f	-0.22570942
135	0xbe0f4f3f	-0.13995074
136	0xbe619e5e	-0.22033069
137	0x3edefc4f	0.4355187
138	0x3e8a28ef	0.26984355
139	0xbda3068f	-0.07960235
140	0xbe5ec4c4	-0.21754748
141	0x3d84d728	0.0648635
142	0x3e311fe8	0.17297328
143	0xbd862255	-0.06549517
144	0xbe83f5f5	-0.25773588
145	0xbec2a9ae	-0.3802008
146	0xbd0bb865	-0.0341114
147	0x3ec7448e	0.3891949
148	0x3db5efc2	0.08883621
149	0x3ebbbc1a	0.36666948
150	0xbec28f02	-0.3799973
151	0xbdbecd57	-0.09316509
152	0xbd82a13b	-0.063784085
153	0xbdf0f12c	-0.1176475
154	0xbe6e0907	-0.23245631
155	0x3e0d0f8d	0.13775463
156	0x3db8bf8f	0.09020912
157	0x3ee6ed8c	0.4510311
158	0xbe6dd2f9	-0.23225011
159	0x3c85710f	0.016289262
160	0xbe25af55	-0.16180165
161	0x3de5b376	0.1121587
162	0xbe178739	-0.14797677
163	0x3e072900	0.13199234
164	0x3e9cbcc1	0.30612758
165	0x3d6d30f9	0.057908032
166	0xbe590cd0	-0.21196294
167	0xbed01518	-0.40641093
168	0x3e55421c	0.20826
169	0xbcbee3e1	-0.02330202
170	0xbf00d549	-0.5032545
171	0x3f09b747	0.53795284
172	0xbdd09e9b	-0.101865016
173	0xbecb2962	-0.3968001
174	0xba99cf4c	-0.0011734753
175	0x3f0410ca	0.5158812
176	0xbe2d495d	-0.16922517
177	0x3d59ab5a	0.05314193
178	0x3dbc49c5	0.09193758
179	0xbf503c82	-0.8134233
180	0xbe141521	-0.14461185
181	0x3d2dce6e	0.042433195
182	0x3e31e161	0.17371131
183	0x3e3b1c6f	0.18272565
184	0xbe578992	-0.21048573
185	0x3f057480	0.5213089
186	0xbe937406	-0.28799456
187	0x3ea8945b	0.32925686
188	0x3e8274cb	0.2547973
189	0xbe649392	-0.22321919
190	0xbd12e086	-0.035858653
191	0xbeeeff42	-0.4667912
192	0x3edae1c7	0.4275038
193	0xbf024d07	-0.50898784
194	0x3eb0f5a6	0.34562415
195	0x3d913df8	0.07091898
196	0x3e648477	0.22316156
197	0x3e910978	0.28327537
198	0x3ec2e3b7	0.38064358
199	0x3e243420	0.16035509
200	0xbd709986	-0.05874016
201	0x3dfb13b4	0.122596174
202	0xbdda9f8a	-0.10674961
203	0x3ec38605	0.38188186
204	0xbd12b280	-0.035814762
205	0xbc7d4f00	-0.01546073
206	0xbcd8289d	-0.026386553
207	0x3e819a23	0.2531291
208	0xbd34c65a	-0.044134475
209	0xbd5b63bc	-0.05356191
210	0xbe33cb4c	-0.1755802
211	0xbf2a806c	-0.66602206
212	0x3e0110bf	0.12604044
213	0x3ee36fa6	0.44421118
214	0x3f12a501	0.57283026
215	0xbe9bbebd	-0.3041896
216	0x3ea8bedf	0.32958123
217	0xbe9c3d03	-0.30515298
218	0xbe84fc31	-0.25973657
219	0x3da308d3	0.079606675
220	0xbea76b02	-0.32698828
221	0xbe4136e3	-0.18868594
222	0x3da895c7	0.08231693
223	0x3db456ae	0.08805595
224	0x3e1dc1eb	0.15406005
225	0xbe943243	-0.28944597
226	0xbe3ead9c	-0.18620914
227	0xbeb5f0ba	-0.35535222
228	0xbd43286b	-0.047645967
229	0x3ed1be77	0.40965626
230	0xbd23e2d5	-0.040011246
231	0xbe293d37	-0.16527258
232	0x3e0ab53e	0.13545701
233	0x3e952f36	0.29137582
234	0x3e36a753	0.17837267
235	0x3e6af4d1	0.22944953
236	0x3f323ff5	0.6962884
237	0x3e6f8c35	0.23393328
238	0x3ebc14b8	0.36734557
239	0xbb9fe4d9	-0.0048795757
240	0x3e68a5b5	0.22719462
241	0xbd3c82b8	-0.0460231
242	0x3d0f2ca3	0.03495468
243	0xbe94c186	-0.29053897
244	0x3e0b0d4d	0.13579293
245	0x3dda869d	0.10670207
246	0x3e3441ca	0.17603222
247	0x3ead3af2	0.33834034
248	0xbdff51e6	-0.12466793
249	0x3eecc091	0.46240667
250	0x3dc5de1f	0.09661507
251	0xbe196620	-0.14980364
252	0xbe3e8cf8	-0.18608463
253	0x3d7c3804	0.06157686
254	0xbc6e90a2	-0.01456085
255	0xbe8d4324	-0.27590287

lstm.bias_ih_l1 f4 [512]
0	0xbe5c5ed4	-0.21520549
1	0xbe2b8e7e	-0.16753575
2	0xbd8b993e	-0.06816338
3	0xbf21f434	-0.6326325
4	0xbf1fca18	-0.62417746
5	0xbdb1b6e8	-0.08677465
6	0xbe717a39	-0.2358178
7	0x3d8c5a70	0.06853187
8	0xbdae885c	-0.08522102
9	0xbd9fe434	-0.07807198
10	0xbe9e657b	-0.30936798
11	0xbf046a6c	-0.51724887
12	0xbf30ecfc	-0.6911161
13	0xbe29c76f	-0.16579984
14	0xbdfb8689	-0.1228152
15	0xbe9d224f	-0.30690238
16	0xbef222c2	-0.47292143
17	0xbe2098db	-0.1568331
18	0xbed2aa60	-0.4114561
19	0xbe410480	-0.18849373
20	0xbe85e331	-0.26149896
21	0x3e2b5c60	0.16734457
22	0x3e922ded	0.28550664
23	0xbd96ad05	-0.073572196
24	0xbd4af43c	-0.049549326
25	0xbdf5d682	-0.12003805
26	0xbec5c879	-0.3862951
27	0xbee7036b	-0.45119795
28	0x3d8cbec6	0.06872325
29	0x3ea12ea6	0.31480902
30	0xbeb438d2	-0.351996
31	0xbeb7d2cc	-0.35903013
32	0xbe8e00bd	-0.27734938
33	0x3d433a6f	0.04766315
34	0xbf2da49a	-0.6782929
35	0xbeda8057	-0.4267604
36	0xbf69be0a	-0.913056
37	0xbe0c3d2a	-0.13695207
38	0xbed2bef4	-0.4116131
39	0xbf359bce	-0.70940864
40	0xbf107544	-0.56428933
41	0xbe40061d	-0.18752332
42	0xbf399dc3	-0.7250635
43	0xbdd74c8d	-0.10512648
44	0xbec85f79	-0.3913534
45	0xbe562731	-0.20913388
46	0xbdbde573	-0.092722796
47	0xbe08ab6f	-0.13346647
48	0xbcd35383	-0.025796657
49	0xbeb175b7	-0.34660122
50	0xbeb66541	-0.35624126
51	0xbe39875a	-0.18118039
52	0x3f0c223a	0.54739726
53	0xbca567f5	-0.020191172
54	0xbe877818	-0.26458812
55	0x3f136b88	0.57585955
56	0x3e01bf0b	0.12670533
57	0xbdae7441	-0.085182674
58	0x3e27489d	0.16336294
59	0xbf080089	-0.53125817
60	0xbf19d76c	-0.6009433
61	0xbf0ee2bc	-0.5581472
62	0xbf1dc90b	-0.6163489
63	0x3e8d5a81	0.27608112
64	0xbf03dd8f	-0.51509947
65	0xbf43a2f2	-0.7642051
66	0xbf320d62	-0.6955167
67	0x3de4dadf	0.11174559
68	0x3e7b1329	0.24519028
69	0xbe90c3b2	-0.28274304
70	0xbf0baffe	-0.5456542
71	0xbe6e53de	-0.2327418
72	0xbe83e155	-0.25757852
73	0xbe4d9974	-0.20078069
74	0xbf3e3c87	-0.7431111
75	0xbdc05acd	-0.09392319
76	0xbf03818e	-0.5136956
77	0xbf23b0e5	-0.63941795
78	0xbe254293	-0.16138677
79	0xbdb554d2	-0.08854069
80	0xbf398630	-0.7247038
81	0xbe97b65d	-0.2963132
82	0x3d06dedd	0.032927383
83	0xbdf96856	-0.121781036
84	0xbeca53b1	-0.39516976
85	0x3ec72553	0.38895664
86	0x3d3fa6b1	0.04678983
87	0xbeb8659f	-0.3601503
88	0x3d6c2285	0.057650108
89	0xbe61042f	-0.21974252
90	0x3ecb7df8	0.39744544
91	0xbf25310c	-0.64527965
92	0xbf1dafa2	-0.6159612
93	0xbe521b06	-0.20518121
94	0xbedbf65e	-0.429614
95	0xbea77787	-0.3270838
96	0xbe43f495	-0.1913627
97	0x3d72f3e4	0.059314623
98	0xbf0a8897	-0.5411467
99	0xbf0bf1fd	-0.5466612
100	0xbe7a4b4d	-0.24442787
101	0x3e8d640e	0.27615398
102	0xbee966e1	-0.45586303
103	0xbeded710	-0.43523455
104	0xbee02c58	-0.43783832
105	0xbec4ada3	-0.38413724
106	0xbe6263c0	-0.22108364
107	0xbe04ca38	-0.12967765
108	0xbf07f1d4	-0.53103375
109	0xbe904aad	-0.28181973
110	0xbecb1866	-0.39667052
111	0xbeec15a8	-0.46110272
112	0x3ec3c35f	0.38234994
113	0xbd086310	-0.0332976
114	0xbea36b9d	-0.3191804
115	0xbef5c740	-0.48003578
116	0xbed742f6	-0.42043275
117	0xbe5ece7b	-0.21758454
118	0xbc40e77a	-0.011773938
119	0xbdcb7c26	-0.09935789
120	0xbee204c4	-0.4414426
121	0xbe8a2cdd	-0.26987353
122	0xbe83329d	-0.25624552
123	0xbd9ef94e	-0.07762395
124	0xbed49ad4	-0.41524374
125	0xbe4af46c	-0.19819802
126	0x3e4ef463	0.20210414
127	0xbf15ed4d	-0.5856522
128	0x3e284e71	0.16436173
129	0x3db77346	0.089575335
130	0x3ec85648	0.39128327
131	0x3ee11416	0.43960637
132	0x3eee4886	0.46539706
133	0xbeb7f2d2	-0.35927445
134	0x3c3350c0	0.010944545
135	0x3c43cc9f	0.011950641
136	0x3cb0f165	0.02159948
137	0xbbd7a677	-0.0065811235
138	0x3e7a8316	0.24464068
139	0x3d6d6abc	0.057963118
140	0x3ef855b6	0.48502892
141	0xbd273c14	-0.04082878
142	0x3e1716ec	0.14754838
143	0x3e6fe8d9	0.23428668
144	0x3eb14dbb	0.34629616
145	0x3e153dcd	0.14574356
146	0x3ed7d804	0.42156994
147	0x3d8e9af7	0.06963151
148	0xbc6101ee	-0.01373337
149	0x3da324ac	0.07965979
150	0x3ebddcd0	0.3708253
151	0x3e8927f1	0.26788285
152	0xbebffac2	-0.37496
153	0x3e026fd5	0.12737973
154	0x3e825d9c	0.25462043
155	0xbc779280	-0.015110612
156	0xbe72bae9	-0.23704113
157	0x3ece7360	0.403224
158	0x3e6daa23	0.23209433
159	0x3eb20082	0.34766012
160	0xbed52761	-0.41631606
161	0x3da16c0b	0.07881936
162	0x3edf05cf	0.4355912
163	0xbda1b7f2	-0.07896413
164	0x3ed0f0aa	0.40808612
165	0xbdefd6eb	-0.11710914
166	0x3eb092a0	0.34486866
167	0x3ef353cc	0.4752487
168	0x3ed9b412	0.42520195
169	0x3eb220a6	0.34790534
170	0x3ebe4eda	0.37169534
171	0xbee5bdee	-0.44871467
172	0x3e684d44	0.22685724
173	0xbd8b5429	-0.06803162
174	0x3e796893	0.24356298
175	0xbe593eaa	-0.2121531
176	0xbe94dcd8	-0.2907474
177	0x3ec1a95b	0.3782452
178	0x3e5f1981	0.21787073
179	0xbf368380	-0.71294403
180	0xbe4990ca	-0.19684139
181	0xbe963f11	-0.2934499
182	0x3e078d70	0.13237548
183	0x3f0d2900	0.55140686
184	0x3e21eda4	0.15813309
185	0xbdf81873	-0.12114038
186	0x3e043ec3	0.12914567
187	0x3ea1ceb3	0.3160301
188	0x3e875bb2	0.26437145
189	0x3e0af81f	0.13571213
190	0x3e7f3421	0.2492223
191	0x3c1b0f9e	0.009464173
192	0x3c24710c	0.010036718
193	0x3e9159c9	0.28388813
194	0x3cce48ad	0.025181139
195	0x3db86f5a	0.090056136
196	0xbec0800c	-0.37597692
197	0x3e33fc75	0.17576773
198	0x3f18bbfc	0.5966184
199	0x3eb016f8	0.34392524
200	0x3dd2bdd6	0.102901146
201	0x3d1ebccf	0.03875428
202	0x3eae8adf	0.34090325
203	0xbe7e19e1	-0.2481456
204	0x3d82daa0	0.06389356
205	0x3e9680b5	0.2939507
206	0xbe017346	-0.1264163
207	0xbe98baa5	-0.29829898
208	0x3ec05c51	0.37570432
209	0xbdcc8ef1	-0.099882014
210	0xbd42bb53	-0.047541928
211	0x3e3d9ac5	0.18516071
212	0x3e9ae6b2	0.30254132
213	0x3e2b1a34	0.16709214
214	0xbf0a3ad0	-0.5399599
215	0x3e70b223	0.23505454
216	0xbea9310e	-0.33045238
217	0xbe824e69	-0.25450447
218	0xbd79950c	-0.060933158
219	0x3e7fcb9e	0.24980018
220	0xbd152121	-0.036408547
221	0x3c898b03	0.016789919
222	0x3e759071	0.23980881
223	0x3ec89426	0.39175528
224	0x3da21228	0.07913619
225	0x3d7e5856	0.062095962
226	0x3e96d335	0.29458013
227	0x3ea7a8d6	0.32746
228	0x3d91df24	0.07122639
229	0xbe5a2c9d	-0.21306081
230	0xbd9dbda4	-0.07702187
231	0x3e95f0ee	0.29285377
232	0x3f243dbf	0.6415672
233	0x3db1f074	0.08688441
234	0xbd8d19e9	-0.068897076
235	0x3e395a7c	0.18100923
236	0x3ea4c4f4	0.32181513
237	0x3edae952	0.42756134
238	0xbce7e344	-0.02830661
239	0x3dc86f02	0.09786798
240	0x3eb914f1	0.3614879
241	0x3edc0ace	0.42976993
242	0x3ea14de3	0.31504735
243	0x3de29fa5	0.11065606
244	0x3d0ddd82	0.034635074
245	0x3e46f0a3	0.19427733
246	0xbed58a1f	-0.4170694
247	0x3dc1ad72	0.0945691
248	0x3de8d299	0.11368293
249	0x3e3c692f	0.183995
250	0xbe2d813f	-0.16943835
251	0xbe9a4210	-0.30128527
252	0x3eb22cd6	0.34799832
253	0x3ed3759b	0.41300663
254	0x3ec0df6d	0.3767046
255	0x3d8e1db8	0.06939262
